actor_single.pth (torch_old, 548378 bytes, 10 tensors)

fc1.weight f4 [400, 33]
00000000: e33e d93f bffc 8c3f 84a4 52bf 4bf2 523f
00000010: f724 c13f db3b 3f3e 61fa 0b3f dbbd 953d
00000020: 0a98 853f 6ea2 313f d8ea 4a3f c1a7 45be
00000030: 38a5 c53d 7f46 3abf 051b b0bf cad6 3b3f
00000040: 7bb5 52bf 52f1 5e3e dce7 84bf 37ba df3e
00000050: 10ae 6ebd abcb c13d a364 0bbe 0a5d dabe
00000060: fafe 0abf cdd2 f43d cd17 ffbd 2cd7 413d
00000070: 853c 91be ea45 e1bc 862a 093d 5830 54bc
00000080: 9f7d 8ebf 641f 9dbe a3fb 81bf b4a5 143f
00000090: 7947 bc3f ac4b b8bd 023b ecbe 2e88 e63f
000000a0: d880 43bf 2f44 1bbf 219f a0bd 80da acbe
000000b0: 852c 1abc a8c9 d0bd c8b0 a8bf 5ca0 893f
000000c0: d2b2 1ebf 8101 93bf 554b a83f d7ef 0abf
000000d0: d5bb eb3f dc88 bebe 7cf5 653d 9da6 25be
000000e0: 0f69 22bf 2207 bbbe d21e 3dbe c9d3 22bf
000000f0: 61f1 eebc 653e d93d 7aa1 ae3c 969f de3c
00000100: 1151 383d e9bf 97bf 9b28 a73d b9eb f6be
00000110: 5864 4f3f 4f9e aa3e 45e9 76bf 2231 253f
00000120: 05b7 fabf b244 bbbe 5161 853e 45f4 0d40
00000130: 6046 a83d 9720 cabe 6b26 423f 1375 153f
00000140: 4438 53bf 2b5e afbe c189 dd3f 3095 e4bf
00000150: cf6d 323e f9f1 0bc0 095d e2be ac78 8cbf
00000160: 5f1f 2c3f d8c3 a23e f9e3 043f 07fa f0bd
00000170: a7f9 dd3e 4053 05bd 07ea f03e 8a3b cbbc
00000180: a195 1f3d 3555 1e3d c5a0 c0bf 52a8 0dbd
00000190: ecd3 8a3c bc17 eebb c2a4 3e3d cbed 203c
000001a0: 1ef4 3a3d d1e8 4b3b a798 263d d4fb 31bd
000001b0: ab92 763c ec0a b0bb e879 9ebc c6ec bd3c
000001c0: dae2 a7bc 9a9e 113b d85c 023d 02e9 f93c
000001d0: 9e9c 7c3b 1b79 84bc 648c b33c 1ad7 eb3c
000001e0: 2ed0 2fbd 18cd 0e3d c461 d23b 997a 173d
000001f0: ca34 cc3c 9111 203d 57a0 e5bc 44fe 803c
00000200: 6231 03bd ec73 4c3c b1c4 313d 152b 05bd
00000210: 5cd7 153f 5e58 303e a0e5 acbe f63d 3b3f
00000220: c10e adbd e245 783c 9b14 21bf 97f3 be3e
00000230: 4ded c9be 3bee b43e d768 763e 72d1 2b3e
00000240: b663 c8bd 4707 ec3e e094 b73e f88b 1a3f
00000250: eea8 4fbf 882d 343e c259 2bbf 9308 4b3f
00000260: 821e 77be 5b75 91bc 81b9 90be 574d 143f
00000270: 8820 d33e 1646 35be 89a4 a5be b549 1b3d
00000280: 708c 05bf 92e8 cf3c 40d3 2e3c 61e2 463d
00000290: bfab bc40 1f52 96bf 7039 7e3f 84fd 5b3f
000002a0: 65bf c3bf d68d d33f 1dca 4940 aaa2 373e
000002b0: fff9 88be 1cd1 c6bf 6e25 4dbf 49d8 f0bd
000002c0: da0c d43d 5d0c b2bd 3561 253f aa85 2f3e
000002d0: 2375 b13e 25f6 99bf c841 14c0 f68d 213f
000002e0: e967 0c3f 2327 b93e 83a8 8fbf a4e0 96be
000002f0: 8f88 1c3f 5387 ad3d cce7 d33d 2736 013f
00000300: 3d7e 17bc fe77 e93c 1416 7abc 5c39 1a3d
00000310: 7283 ee3c 5235 9dbe 83fc ebbe 1ceb 373b
00000320: b4c7 313f 899d 97bc c7d9 703e a23b 03c0
00000330: 12e1 983f e922 e13e 224d b0bf a02a 383f
00000340: 3a9f 8e3e ef21 be3b 315e 0a3f 44b1 04be
00000350: b4a9 4dbf e33d cbbe 9567 59c0 ede2 e93f
00000360: 082f 1a40 8cfe 843f def4 383f e61d 833e
00000370: 30c6 0e3f 29f9 033f 4095 d5be 4bba 6cbe
00000380: 3371 04be 7097 fb3c 3ba3 51bf a046 bb3a
00000390: 766c 45bb ec22 6e3c df41 79be 06c4 8dbf
000003a0: b05d 8f3d 9859 9cbf af21 6fbe 8b03 77bf
000003b0: 7102 b93e 5c45 a03f 615a b83e 2f15 a2bf
000003c0: 8038 adbc fc4d a53d baa6 28be ec21 b9bd
000003d0: a854 b23f 1293 16bf d956 853f 3e2c 61bf
000003e0: 98b3 9f3f 1c5d 3dbf ece9 703f 60fd 01be
000003f0: 866f 2a3e b5e0 52be 3ae0 d23e b7f9 49be
1.6972317 1.1014632 -0.8228228 0.8240096 1.5089406 0.18675177 0.5467892 0.07311603
1.0437024 0.69388473 0.79264593 -0.19302274 0.096506536 -0.7276382 -1.3758246 0.7337462
-0.8230817 0.21771744 -1.0383258 0.43696758 -0.058271468 0.09462675 -0.13612609 -0.42649108
-0.54295313 0.119542696 -0.124557115 0.047324345 -0.28366485 -0.027499158 0.03348782 -0.012950979
-1.1132087 -0.30688012 -1.0154918 0.5806534 1.4709312 -0.08998808 -0.4613877 1.8010309
-0.76368475 -0.60650915 -0.078428514 -0.33760452 -0.009410028 -0.10194713 -1.3178949 1.0752063
-0.6199161 -1.1484834 1.314799 -0.54272217 1.8416697 -0.3721379 0.056142315 -0.16176839
-0.63441557 -0.3652888 -0.18468788 -0.6360441 -0.029167833 0.10607604 0.021317232 0.027175706
0.044999186 -1.1855441 0.08162042 -0.48226717 0.8101249 0.33323905 -0.9644969 0.64528096
-1.9587103 -0.36575848 0.2605081 2.218034 0.08216548 -0.3947799 0.7583987 0.58381766
-0.8250773 -0.34251532 1.7307664 -1.7858028 0.17424701 -2.1866438 -0.44211605 -1.0974326
0.6723537 0.31790042 0.5191036 -0.11766439 0.43354532 -0.032550097 0.4705355 -0.024808664
0.038961057 0.03865548 -1.5049063 -0.03458435 0.016946755 -0.007266013 0.046543844 0.009822319
0.045642965 0.0031114111 0.040672924 -0.043453053 0.015049617 -0.0053723957 -0.019345239 0.023184191
-0.020493913 0.0022219778 0.031826824 0.030506615 0.00385455 -0.016171029 0.02191753 0.028789092
-0.042923145 0.03486356 0.006420346 0.036982153 0.024927516 0.039079253 -0.028030558 0.015746243
-0.032029517 0.01247881 0.04340047 -0.03251179 0.5853174 0.1722121 -0.3376894 0.7314142
-0.0845008 0.01515338 -0.62922066 0.3729522 -0.3943886 0.35338005 0.2406343 0.16779116
-0.09784643 0.46099302 0.3585577 0.60369825 -0.8111714 0.17595494 -0.66933835 0.7930996
-0.24132732 -0.017756155 -0.28266528 0.5793051 0.41235757 -0.17702517 -0.32352093 0.03791209
-0.52167416 0.025379453 0.010670483 0.048555735 5.895965 -1.1743811 0.9930639 0.8593371
-1.5292784 1.652766 3.152961 0.17933145 -0.26753232 -1.5532565 -0.8013524 -0.11760003
0.10354014 -0.08693764 0.6460145 0.17140833 0.3465968 -1.2028242 -2.316515 0.6310724
0.54846054 0.3616267 -1.1223301 -0.29468262 0.6114587 0.08473077 0.10346946 0.50473255
-0.009246406 0.0284996 -0.015264053 0.03765236 0.029115412 -0.30704743 -0.4609109 0.002806372
0.6944535 -0.018507736 0.23520575 -2.0505147 1.1943686 0.43971947 -1.3773539 0.7194004
0.27855855 0.005802385 0.54049975 -0.12958246 -0.8033707 -0.39695653 -3.3969471 1.8272377
2.4091206 1.0390182 0.7224864 0.25608748 0.5577116 0.51552063 -0.4171543 -0.2311794
-0.12933807 0.03071186 -0.81889695 0.0014288016 -0.0030124462 0.014534693 -0.24341534 -1.1075447
0.07000291 -1.2214842 -0.23352693 -0.9648978 0.36134675 1.2521167 0.36006454 -1.2662715
-0.021145105 0.08071515 -0.16469851 -0.09039673 1.3932085 -0.5881816 1.0417129 -0.87958133
1.2476683 -0.739702 0.94106936 -0.12694311 0.16644105 -0.20593531 0.41186696 -0.19724165

fc1.bias f4 [400]
00000000: 2e05 83bd 0b20 8d3d eccb bdbb e024 26bd
00000010: 4eb6 d7bd 6247 883d 91a9 eabd 4fe2 03be
00000020: 1828 b73d 8ad3 e73b 01fa fd3d d36d b5bd
00000030: a1be 16be 346c ee3d 9cde 5e3d 0559 463d
00000040: 4fde 443d ac5b 91bd a404 f73d bc73 08be
00000050: efe2 203d 8ae7 8d3d 3670 77bd a24a 96bd
00000060: d1ee 42bd fa51 113e a548 193e 08cc f73c
00000070: cee1 333b 99ea e23d 9c17 febd 0ea2 263d
00000080: 04ff e6bd f9ec 433d 3813 153e bf2f 8e3d
00000090: 68a3 883d e991 163c 9547 06be f122 17bd
000000a0: cc85 c63b f622 bcbd b63d 243e a83d 853d
000000b0: 491a 253e 891d 0bbe 2d1b 0d3e 923b c9bd
000000c0: d189 27bd 83c0 cb3c 227d 143e 0ac6 aabd
000000d0: 5f99 043e d067 be3d 542d ebbd 15be 083e
000000e0: b700 003c 9d1c 073e 58a4 09be d45c e93d
000000f0: f919 51bc f860 14be 1f39 333d 74b1 28bd
00000100: 206b f6bd 2ab3 c6bd 611a 2dbe bb7b b93d
00000110: 68a4 25be 44e5 843d be6e edbc 0cb0 7c3c
00000120: 79a1 943d 3f50 11be bd4f 293e 81d4 8abc
00000130: 9a83 bdbd 44fc 203e 31a5 cb3d 872a d7bc
00000140: cc2c 40bc 679b f33d a502 313e 2ed5 36bc
00000150: 2897 16be 8090 febd 7377 ffbd 8979 dbbd
00000160: 6205 fdbd df2a 1abe 8cd3 0a3e 2a12 0ebe
00000170: d222 ba3a 54ec f1bc 73df 213e 19e5 143e
00000180: 5461 933d f75d 0c3e 726f ee3c cd27 8dbb
00000190: 6b39 913d 4a85 e9bd c861 e03d f56b 423d
000001a0: e8f7 0f3c 605b 98bd 7e5d 173e ea70 0f3c
000001b0: 1c20 cdbc bd88 a9bd 2752 e03c 2207 90bd
000001c0: ad23 10be a132 023e 7691 b73d 0bc9 a63d
000001d0: 097a a93d 62c5 673d 3831 9b3d 0c9f bd3c
000001e0: 18f3 aabd 966b c83d ac84 c53d 23d7 56bd
000001f0: 9b6e 13bd 99ff e4bd ffcc 82bd c8f0 1e3e
00000200: 335d a43d 0cde bb3d 5ae7 27be 7cd2 ba3d
00000210: bb46 d1bd 980e 163e a11b debb 4b58 9dbd
00000220: 745d cc3d 723b 7cbc f4fe a13d 83e1 983d
00000230: 7d05 5ebd eb89 2bbd c94b f9bd d46c e6bc
00000240: 0687 b1bd bff0 843b 8582 17be cdb0 7d3d
00000250: 9168 12be 7f72 6cbc d299 05be 6dfb f7bc
00000260: 7ae3 8d3d de04 29be d82d 2bbe e49b c9bd
00000270: 1b0e 103e df85 4bbd 5e80 353d 5030 253e
00000280: 0715 ebbb f32b 823c 71f3 ea3d 5f36 97bd
00000290: 3dce 61bd 67a2 e2bd 7305 803d c2ee 813c
000002a0: ca3a be3d 1dfe e43d abd0 233d 5904 033e
000002b0: 7646 993c 43dc f33d e9ce a8bd bbb8 c9bd
000002c0: 6418 0cbc 1147 1a3e 06fb 003e b051 0abe
000002d0: 0924 323e a012 f3ba 64c6 11be ddd7 823b
000002e0: c4a3 063e ae2c 99bc e8c8 96bd 04e1 0dbd
000002f0: a5e5 1b3d 3c50 e2bd 201f d9bc 59e1 7abc
00000300: 7908 2e3d 4fc4 b13d e9cc 1a3e 78b3 043e
00000310: 1b76 ca3d 1858 02bd 6901 313d d33b 19be
00000320: a268 adbd c778 1b3e bc9e 76bd 83a7 3ebd
00000330: f055 0ebd 51be bb3d 0d55 19be 013c 153d
00000340: e487 283e 6095 fbbd 6640 c8bd e22d d03d
00000350: 883d 03be d1ab 1b3e 3a7d 41bd e640 dcbc
00000360: d0fc 2ebe 2012 bcbd 0ed1 6abd 761d 26be
00000370: 5a11 30bd ae37 423c 7acc 4b3c fc03 f73b
00000380: 4fcb 5dbd ae56 4cbd 8bf6 423a 9f76 c6bd
00000390: fd4f 543c 2765 d93c 7749 1e3e c9b5 db3b
000003a0: cd25 4dbd 929b a3bd 331f ea3d a65d 583d
000003b0: b0df a83c 0b9a 0abd bd2e 273e 5319 30be
000003c0: fab7 2d3e f4d9 02be 064c 13be 4666 893d
000003d0: d18b 163c feee bdbc e44b a63d a795 1fbe
000003e0: bc67 bbbd 77ce 283e 7d9e f0bd f2f6 0c3c
000003f0: 3dd5 97bc 55ee a3bc fab4 8c3d d7fb ad3d
-0.06397472 0.06890877 -0.0057921316 -0.04056251 -0.10532819 0.0665424 -0.114581235 -0.12879299
0.08943194 0.007074778 0.124012 -0.08858838 -0.14721157 0.11641732 0.054411516 0.04842474
0.048063572 -0.07097563 0.12061432 -0.13325399 0.03927892 0.06928928 -0.060409747 -0.07338454
-0.047591034 0.14191428 0.14969118 0.030248657 0.0027447823 0.11079902 -0.12406847 0.04068189
-0.11279109 0.047833417 0.14558113 0.069427006 0.06671792 0.009190061 -0.13113244 -0.036898557
0.0060584303 -0.09186356 0.16039166 0.065059006 0.16123308 -0.13585486 0.13779898 -0.09825815
-0.040902916 0.02487207 0.1450086 -0.08338554 0.12949131 0.092971444 -0.11483255 0.1335376
0.00781267 0.13194509 -0.13441598 0.11394659 -0.01276254 -0.14490116 0.043755647 -0.041184857
-0.12032151 -0.097021416 -0.16904594 0.09056803 -0.16175997 0.064890414 -0.02898347 0.015422832
0.07257361 -0.14190768 0.16534324 -0.016947033 -0.09253617 0.15721232 0.09943617 -0.026265396
-0.01172943 0.11894875 0.17286165 -0.011159224 -0.14706099 -0.12429905 -0.12473955 -0.1071654
-0.12354542 -0.15055417 0.13557261 -0.13874117 0.0014201051 -0.029531635 0.15807895 0.14540519
0.07196298 0.1370772 0.029105876 -0.004307723 0.0709103 -0.11402376 0.1095615 0.047466237
0.008787133 -0.074393034 0.14781758 0.008754948 -0.025039725 -0.08278034 0.027382923 -0.070326105
-0.14076109 0.12714626 0.08963291 0.08143815 0.082752295 0.056584723 0.07577747 0.023147129
-0.08347148 0.097861454 0.09644446 -0.052451264 -0.035994153 -0.11181564 -0.06386756 0.15521538
0.08025589 0.091732115 -0.16396847 0.09122178 -0.10218569 0.14654005 -0.006778196 -0.07682856
0.09978762 -0.015395032 0.079099566 0.07464888 -0.054204453 -0.041879576 -0.12172658 -0.028128065
-0.08668332 0.0040570195 -0.14795883 0.06193619 -0.14297701 -0.014431595 -0.13046959 -0.030271256
0.06928153 -0.16505763 -0.16716707 -0.09844187 0.14067881 -0.049688216 0.044311874 0.16131711
-0.0071741375 0.015890097 0.11472214 -0.07383417 -0.055128325 -0.11066132 0.06251039 0.015860919
0.09288557 0.11181281 0.039993923 0.12794627 0.018710356 0.11907246 -0.0824259 -0.09849688
-0.008550737 0.15066172 0.12595758 -0.13507724 0.17396559 -0.0018544979 -0.14235836 0.003993018
0.13148409 -0.018698063 -0.073625386 -0.03463842 0.038060803 -0.1105046 -0.0265041 -0.015312516
0.04248855 0.08680021 0.1511723 0.12959087 0.09885808 -0.031822294 0.043214235 -0.14964227
-0.08467223 0.15182792 -0.060209975 -0.04654647 -0.034749925 0.09167159 -0.1497385 0.036434177
0.16458088 -0.122843504 -0.09777908 0.101650015 -0.12816441 0.15202262 -0.047238566 -0.026886415
-0.17088628 -0.091831446 -0.057328276 -0.16222176 -0.042985298 0.011854095 0.012438888 0.007538317
-0.05414897 -0.04988735 0.00074372505 -0.09690594 0.012958524 0.026537491 0.15457712 0.00670502
-0.050084878 -0.07988657 0.11431732 0.052823685 0.020614475 -0.033838313 0.16326423 -0.1719716
0.16964713 -0.12778455 -0.1438447 0.0670896 0.009188608 -0.02318525 0.08119944 -0.15584432
-0.09150645 0.1648501 -0.11748979 0.008603798 -0.018534297 -0.020011107 0.06870456 0.084953

bn1.weight f4 [400]
00000000: 9125 0d3f 65e8 113f e597 493f a219 2c3b
00000010: 6720 543f eb86 ee3e f5ce 3f3f a093 4e3f
00000020: c59e 6d3f 5cf2 173f f859 083f 1660 693c
00000030: b562 2f3f 3a8a 7f3f e9d0 273f 64e0 473f
00000040: c2d0 8c3f f872 153f 0957 213f d543 1b3f
00000050: bb40 2e3f b10d 2c3f 5d3a 353f 7c55 3d3f
00000060: 18ec 653f c789 373f 7668 2d3f 13a0 2e3b
00000070: 0727 5f3f 7cbe 1a3f 4b11 0a3f fe65 333f
00000080: 2125 323f 23e9 ab3e 0b93 fd3e 9392 7bbb
00000090: 1904 d53e 354f ed3e c5de 063f e8f5 3d3f
000000a0: f8e1 273f 8393 1a3f 1d11 373f f353 e23e
000000b0: 0138 423f f019 f93b 6c31 1b3f ee43 263f
000000c0: 5f6d 013e dd74 183f 265a 5d3f e21d 0a3f
000000d0: 7a5c 053f a84f 313f 3a88 503f 8e17 ff3e
000000e0: 7a66 483f 03ae 263f 89e8 393f 0780 463f
000000f0: ad71 383e de3a ed3e fe97 fd3e d5ed 1a3f
00000100: 895d 123f 15a9 f03e 2fd2 473f 378d 133f
00000110: 6c1b f03e 6a1c 463f b143 0d3f 43e4 203f
00000120: 136b d63e adbb 133f cccc 263f 5695 2f3f
00000130: 5615 143f fcc4 9a3f 553e d43e b4b4 1f3f
00000140: 3b9c 2e3f db57 1e3f df5b 1f3f dcb9 463f
00000150: dac3 093f f199 483f ac6c 2d3f 398e d73e
00000160: c89a 6e3f 792c cc3e 2f86 8f3f 6b61 403f
00000170: e3d4 193f 2181 0a3f 47f9 273f 1483 2d3f
00000180: e7da 663f 1875 143f 4a1d c43e 0ba8 1e3f
00000190: a893 193f f0d6 463f 1433 813f f571 753f
000001a0: 94f6 1f3f b884 2a3f a765 0d3f 5607 0b3f
000001b0: 912d 413f 3e68 123f f7a9 a93f 68dd 1f3f
000001c0: d3cb 4a3f c9f7 933f 09ad 6f3f 00ec 3f3f
000001d0: 44fc 1f3f 931d 8f3f cfee 853f 84d6 3d3f
000001e0: 828e 4e3f 5a5d 113f 5ba2 8038 6273 5a3f
000001f0: 9bea 4f3f b164 023f 5e80 2f3f 7416 413f
00000200: 726e 3b3f 72fc 4f3c 5ad0 0c3f cc6b 4dba
00000210: 1360 183f 18a3 093f 66ce f13e fde4 f03e
00000220: fca4 7f3c c8f5 353f 8949 1e3f 8a04 2f3f
00000230: ca88 4e3f 31dc f23e 1fd4 fb3e 19a3 0a3f
00000240: 8e98 803f 3acc 083f 0a61 3d3f 18d2 0a3f
00000250: ca90 083f a02b 2d3f dd4e 683f 1d5f 753e
00000260: c638 f53e 3f85 e53e a9c7 293f 32f4 4c3f
00000270: 5e6d b03e 45c8 0b3f 1546 353f 6e32 1e3f
00000280: 1bbe 263f 62a9 8e3f ef79 5a3f ea4a 413f
00000290: 525d 603f 7eb0 173f c756 5b3f f603 333f
000002a0: 21f1 533f 1a79 313f 67e0 253f 0897 1c3f
000002b0: 8fdc 1d3f 8c93 e43e f2d2 153f 4f94 023f
000002c0: f5a8 dd3e 0d60 323f ba4e f33e 5d55 273f
000002d0: 44b4 6e3f d152 223f 71ab f43e c771 0d3f
000002e0: 80f0 333f 1d8f 263f 05a0 123f 1879 203b
000002f0: 3aca 213f fbc9 f63e a6d2 c03e 4922 a53e
00000300: 540b 413f cebb 283f cabd 8d3f f38a 453f
00000310: 3d45 2b3f 34f4 343f 2a67 3c3f 61bb 1a3f
00000320: d438 4a3f 5d1f 653f ba67 483f 9b84 223f
00000330: dd07 b9bb 2fc0 e23e 67bf a03f 0ec4 b13e
00000340: 0adb 543f 4ed7 ebba 2556 d03e 6760 7e3f
00000350: b270 483c 5a80 bc3e de05 7d3f 40ea 2e3f
00000360: cf6e 243f 94d3 7f3f 70e9 383f 2d05 5f3f
00000370: 8d07 203f 1d5f 183b caab f83e ceb3 d23e
00000380: f6db e63e 35e0 3c3f d449 2e3f 6af3 e93b
00000390: adf9 0d3f 7fef 483f e177 613f a0fa f63e
000003a0: 238b 7d3f 58ae f23e 4a09 0b3f 339d e53e
000003b0: 4238 6d3f 21a0 343f 06e9 4d3f 67c1 0f3f
000003c0: a455 3b3f 7ec6 3d3f b900 463f 1ff6 273f
000003d0: 99cc 293f f3d5 373f 7fd0 3fbc ea81 383f
000003e0: 0fe8 dd3f a9f2 2f3f 2946 513f ecf5 813f
000003f0: caf2 1f3f e7da 113f 6501 323f a6eb c33e
0.55135447 0.5699523 0.787474 0.0026260396 0.8286194 0.4658731 0.74925166 0.8069401
0.9282039 0.59354186 0.5326228 0.0142441 0.6850999 0.9982029 0.65553147 0.7807677
1.1001208 0.58378553 0.6302343 0.6065038 0.6806752 0.6720839 0.7079218 0.73958564
0.89813375 0.71694607 0.6773752 0.0026645705 0.87168926 0.60446906 0.53932637 0.700775
0.69587904 0.33576307 0.49526247 -0.0038386926 0.4160469 0.46349493 0.5268367 0.7420335
0.65579176 0.60381335 0.7151049 0.44204673 0.75866705 0.007601969 0.60622287 0.649474
0.12639378 0.5955332 0.8646568 0.5395185 0.52094233 0.6926217 0.81457865 0.49822658
0.78281367 0.6510927 0.72620445 0.77539104 0.18012114 0.46333975 0.49530023 0.6051915
0.57173973 0.47004 0.7805509 0.5763735 0.4689592 0.77387106 0.55181414 0.628483
0.41878566 0.57708246 0.65156245 0.68587244 0.57845056 1.2091365 0.41453806 0.62385106
0.6820714 0.61852807 0.6224956 0.7762735 0.5381447 0.78359896 0.67743945 0.42100695
0.9320493 0.3987768 1.1212825 0.7514865 0.60090464 0.54103285 0.6561474 0.67778134
0.9017777 0.5799117 0.38303596 0.61975163 0.5999093 0.7767172 1.0093713 0.9587701
0.62485623 0.6660876 0.55233234 0.5430807 0.75460154 0.5719031 1.3254994 0.62447214
0.7921726 1.1559993 0.93623406 0.7496948 0.624943 1.11809 1.0463504 0.7415545
0.806862 0.5678307 6.133757e-05 0.8533231 0.81217355 0.5093489 0.6855525 0.75424886
0.732154 0.012694465 0.5500542 -0.00078361924 0.595216 0.53764486 0.47227782 0.47049704
0.0156033 0.7107816 0.61830956 0.683663 0.80677474 0.47433618 0.49185273 0.5415512
1.0046556 0.53436625 0.73976195 0.5422683 0.5334593 0.6764469 0.90745336 0.23962064
0.47894877 0.4482822 0.6632028 0.8006011 0.3445844 0.5460246 0.7081006 0.617957
0.6513383 1.1145442 0.85342306 0.75504935 0.87642395 0.5925368 0.85679287 0.6992792
0.8278981 0.6932541 0.64795536 0.61167955 0.6166467 0.4464382 0.58525 0.5100755
0.43292966 0.6967781 0.47521 0.6536463 0.93243814 0.6340762 0.4778705 0.55251735
0.7028885 0.65062124 0.5727542 0.002448624 0.631992 0.48200974 0.37660712 0.3225272
0.7540791 0.6591157 1.1073544 0.77165145 0.66902524 0.70685124 0.73594916 0.6044217
0.7899296 0.8950098 0.78283274 0.6348359 -0.0056466893 0.4428725 1.2558411 0.3471989
0.8314673 -0.0017993243 0.40690723 0.9936585 0.0122339 0.36816674 0.9883708 0.6832619
0.6423158 0.9993222 0.722312 0.8711727 0.6251152 0.0023250051 0.48568565 0.41152805
0.45089692 0.7377961 0.680814 0.007139613 0.554591 0.7849044 0.88073546 0.48238087
0.9904043 0.4739864 0.5431105 0.44846496 0.9266397 0.7055684 0.8043369 0.56154484
0.7317755 0.74131 0.7734485 0.65609926 0.66327816 0.71810836 -0.011707424 0.72073233
1.7336444 0.68729645 0.8174768 1.0153174 0.6247984 0.56974643 0.6953338 0.38265723

bn1.bias f4 [400]
00000000: 0d9a 5fbe c45b 40bf 1681 ccbe 83dd 12bd
00000010: 11d7 13bf 99df b7be 4a87 e9be eb83 41bf
00000020: 0132 b2bd 6993 4cbf 0334 18bf 2da4 c9bd
00000030: f316 73bf b693 b8bf e6a2 0abf 7fd8 04bf
00000040: 38ad 99bf 6b28 99be 2d83 3fbf 0270 4bbf
00000050: cbc8 88bf a477 3d3e 883c 08bf 1475 8ebf
00000060: 048f 0dbf 217e 1ebf b3ab 24bf ec99 1abd
00000070: eeba 7fbf d590 d7be 96a7 37bf 59cd 16bf
00000080: 0fa1 48bf 8256 f03c ed2b c6be 5521 11be
00000090: 10fa 9c3d 0937 42bf 21c5 16bf 3d77 e1be
000000a0: 2915 66bf f6cf 3dbf ed89 51bf bc6e c6be
000000b0: 7cb0 8bbf 12ce 90bd 25f5 60bf c175 b0be
000000c0: 9718 66bf dfe7 49bf b178 60be 72ca f0be
000000d0: fa8f bcbf 061f 9dbf 85e9 083f d6bc 90bf
000000e0: e5b3 44bf b74b 68bf 56f1 44bf 5b64 7abf
000000f0: 6467 f93e adaf 06bf 6851 69bf e5cf cfbe
00000100: 4c97 87be aef5 dcbe 7d6d d2bf 725d acbe
00000110: 3524 7bbe 11ab 18bf 78be f4be 50c4 05bf
00000120: 85fc 47be 95ef 84be dabf f4be 327d 1bbf
00000130: 0df0 3abf 3799 b2bf 0651 06bf 131b adbe
00000140: 5887 f7be db0e 2cbf 9b46 8cbf 4d1c c13c
00000150: d1ac 46bf ae39 9ebf af32 12bf ea6d ffbe
00000160: 50e8 5fbf e56b 11bf 5af4 e3be c576 e1be
00000170: 54ff e3be 5e8c 97be ee23 debe 6ce1 53bf
00000180: d493 3fbf ea67 1dbf 0c66 07be 2d93 b0bd
00000190: 5148 34bf 13d2 83bf 4769 9dbf fa7e dfbe
000001a0: 9348 40bf f695 83bf 1884 03bf aeea 19bf
000001b0: 3862 93bf 2fd5 10bf 7f67 9fbf 134f 6dbf
000001c0: 366d 52bf 7879 6fbf 7590 1ebf 789b debe
000001d0: ef74 55bf faaf 61bf 2a8e c2be 0698 ae3e
000001e0: d565 bfbe 6008 0bbf 515c 86bc 9dc7 60bf
000001f0: 10a3 b4be 9c38 a5be b2c6 26bf 872f 1dbf
00000200: 3323 6bbf 81e3 ecbd ff59 19bf 9583 35bc
00000210: ee0d 40bf 8af8 a2be f6fe 793e 118b 08bf
00000220: 0021 0fbe 9e7b 64bf d5cc 98bf 600e 7cbf
00000230: 6673 adbf daad 91be 7229 0abf 82b0 d4be
00000240: 9efa 38bf 2b29 41be 7442 ebbc cfb5 16bf
00000250: f894 5bbf ec0a afbd b9a4 7dbf 6935 a4bf
00000260: cbe9 4ebf c4bb 5cbf 2bda 53bf 68bf ef3e
00000270: ef88 51be d216 81bf d91d 26bf b71d ddbe
00000280: 2d50 94bf b12b 8cbf 5aa0 29bf 97b7 0bbf
00000290: a8a2 0ac0 1d1b cdbf d3bb 1abf 089a e2be
000002a0: 5732 76bf 74d4 52bf 34c6 02bf f956 83bf
000002b0: bbb3 1cbe b9d4 bbbe ff18 0ebf fefd 2ebf
000002c0: d4ad 52bf 7a47 a8bf 50a8 7bbf 9075 8dbf
000002d0: a4a3 7cbf ea7f aebf 2ddf f0be 306d 63bf
000002e0: b6be 76bf 19d6 e6be 561d 66bf 1bb0 83bd
000002f0: 587f 9bbe 201d cbbe 4667 9ebe 6d4a 25be
00000300: c1fc cf3e 35df 05bf 9db8 86bf 6602 78bf
00000310: 0d43 11bf c1cb 64bd c447 e3be cef3 003d
00000320: f913 81bf 41b6 5bbf ee85 53bf 84fc 45bf
00000330: 1af1 15bd db98 29be 9cdb 34bf 833f 9dbd
00000340: 95ea 46bf 3975 bebc d649 13bf 3d2b 64bf
00000350: 92e1 eebd bcd8 24bf 9127 6cbf 811c 40bf
00000360: 8788 68bf d8e5 2dbf 0a1d 3dbf 9206 82bf
00000370: 7d7b 3abf 4174 a8bc 72e7 05bf 6360 673d
00000380: 4d49 23bf 8901 05bf 150f 3fbf 59ec 14be
00000390: 41a4 13bf 4006 59bf 0828 70bf a016 02bf
000003a0: 08b2 f2be fa0e 02bf dc95 85bf 4f77 bcbf
000003b0: 0583 c7be d49a f6be 2a35 6abf d25f 2cbf
000003c0: fc77 a4bf 953c 34bf 18f6 28bf 6336 5ebf
000003d0: 47cf a5bf 2777 43bf f864 46bd 7a0f 5fbf
000003e0: f93a b7be 2677 85bf 090f 8fbf b472 353d
000003f0: 341c 67bf 98cd 72bd 747b 4abf d6b1 d3bd
-0.2183611 -0.75140023 -0.39942235 -0.03585578 -0.5775004 -0.3591278 -0.4561103 -0.75591916
-0.08700944 -0.7991243 -0.59454364 -0.09845767 -0.9495689 -1.4420078 -0.54154813 -0.51892847
-1.2005987 -0.2991365 -0.74809533 -0.79467785 -1.0686277 0.1850267 -0.53217363 -1.112948
-0.5529635 -0.6191121 -0.6432449 -0.037744448 -0.9989461 -0.42102686 -0.7174009 -0.58907086
-0.78370756 0.029338125 -0.38705388 -0.14172871 0.07664883 -0.75865227 -0.58894545 -0.44036284
-0.8987604 -0.7414545 -0.81851083 -0.3875636 -1.0913234 -0.07070555 -0.8787406 -0.3446484
-0.8988127 -0.7886943 -0.2192104 -0.47029454 -1.4731438 -1.2275093 0.5348132 -1.1307628
-0.76837 -0.9074053 -0.7693075 -0.9780938 0.48711693 -0.5261181 -0.9113984 -0.40588298
-0.26482618 -0.4315619 -1.6439663 -0.33665043 -0.2452553 -0.59636027 -0.47801566 -0.52252674
-0.19529922 -0.25964037 -0.4780262 -0.6073791 -0.7302254 -1.3953007 -0.5246738 -0.33809718
-0.48345447 -0.6721017 -1.0959047 0.023573065 -0.77607447 -1.2361352 -0.5710859 -0.49888545
-0.87463856 -0.5680526 -0.44522363 -0.44035926 -0.44530737 -0.2959928 -0.43386787 -0.8276584
-0.7483494 -0.61486685 -0.13222522 -0.086218216 -0.70422846 -1.0298485 -1.2297753 -0.43651563
-0.7511074 -1.028014 -0.51373434 -0.6012372 -1.1514349 -0.5657529 -1.245346 -0.9269878
-0.8219789 -0.9354472 -0.61939174 -0.43477988 -0.8338155 -0.88159144 -0.37999088 0.3410036
-0.3738238 -0.54309654 -0.016401442 -0.87804586 -0.35280657 -0.32269752 -0.65146935 -0.61400646
-0.91850585 -0.115668304 -0.5990295 -0.011078735 -0.75021255 -0.31830245 0.24413666 -0.533372
-0.13977432 -0.89251125 -1.193751 -0.98459435 -1.3550842 -0.2845295 -0.5396949 -0.41540915
-0.7225741 -0.1886336 -0.02871821 -0.5887117 -0.85774183 -0.08547005 -0.9907947 -1.28288
-0.8082549 -0.8622401 -0.8275477 0.4682572 -0.20462392 -1.0085089 -0.64889294 -0.43186733
-1.1586968 -1.0950834 -0.662603 -0.5457701 -2.1661777 -1.6023899 -0.60442847 -0.44258142
-0.9617056 -0.8235543 -0.51083684 -1.0260917 -0.15302937 -0.36685732 -0.5550689 -0.6835631
-0.8229649 -1.3146813 -0.983037 -1.1051502 -0.98687196 -1.3632786 -0.4704527 -0.8883848
-0.9638475 -0.4508522 -0.89888513 -0.06430074 -0.30370593 -0.39670658 -0.30938166 -0.16141672
0.40622523 -0.5229371 -1.052509 -0.9687866 -0.56742936 -0.055858377 -0.4439069 0.03148251
-1.008422 -0.8582497 -0.82626235 -0.77338433 -0.036606885 -0.16562216 -0.706476 -0.076781295
-0.77701694 -0.023249255 -0.5753454 -0.89128476 -0.11664118 -0.6439321 -0.92247874 -0.75043494
-0.90833324 -0.6792884 -0.73872435 -1.0158255 -0.7284468 -0.020563247 -0.5230628 0.056488406
-0.63783723 -0.5195547 -0.7463239 -0.14543284 -0.57672507 -0.8477516 -0.9381108 -0.50815773
-0.47401452 -0.508041 -1.0436358 -1.472391 -0.38967147 -0.48165 -0.9148737 -0.6733371
-1.2849116 -0.7040494 -0.6600051 -0.8680174 -1.2953881 -0.7635369 -0.048436135 -0.8713299
-0.3578718 -1.0426986 -1.1176463 0.044298843 -0.9027741 -0.0592781 -0.79094625 -0.10336654

bn1.running_mean f4 [400]
00000000: fb64 1540 b364 25c0 aa9a 8f40 315d 81bd
00000010: 260c f1be f96e 36c0 ef85 0540 a30c b83f
00000020: 4fed 67bf e54d 3440 cdd0 4ec0 c5ae ce3e
00000030: 0ce3 f83e 8775 cc3f 2b1e 36c0 aa12 99bd
00000040: 3d5e 29bf c547 89bf 2a31 56bf 2d4f 16bf
00000050: 55fb 50bf 7a29 febe e540 1540 ca10 7940
00000060: 5760 563f e675 a7c0 daff 853f f720 ddbd
00000070: 8dba afbf 2b31 51c0 ffef adbf 2f7e 82bf
00000080: c031 0b40 f857 9940 c1e4 bfbe dd33 0a3d
00000090: 6e56 2d3f 4185 68c0 145d ea3d 7718 183f
000000a0: 652b 01c0 afbe 52c0 33a5 193f 409d 86bf
000000b0: d361 a93f 2651 8d3d 4b5f abc0 190b 0f3f
000000c0: 115b 53bf a6bc 3c3e ff27 9e3f c517 d23e
000000d0: 6f7f 8ec0 d9f9 123f 3ba2 87be 4373 8fc0
000000e0: 1199 603e d82d 61c0 1bf3 ab3f 18c5 d2be
000000f0: bf8f 0bbf 485a 3140 d4e8 8ac0 7ab2 5e40
00000100: d1c2 df3f 5f88 813e 289c 6c3e 09f2 853f
00000110: 8737 3abf d445 383f f944 a340 2af7 663e
00000120: ce7f 65c0 3504 32c0 f79a e5bf ecc1 6740
00000130: a54c b43f d9e6 b2be 3c41 81c0 a5d3 8f3f
00000140: e854 fcbf 23a2 e73e ce6e 16c0 d0f0 3140
00000150: 07f4 2ac0 c44a ad3f 3361 863f 7539 f4bf
00000160: 7eb9 3abf d2de f6bf 4a39 2fbf c40b ac3e
00000170: 51bd 33c0 7851 77bf 08ae 973f 54d0 82c0
00000180: 7d7b 4b3f a4b5 963e b184 e93f a05f 963f
00000190: 710f 75c0 c61e 99c0 3899 0f40 2473 2fbf
000001a0: 9e95 6ec0 f46b 92c0 8cb4 22c0 6d95 42c0
000001b0: 9d23 c23f 0a36 433f ce31 cd3c d130 bbbf
000001c0: 3e7c 6640 85b1 83be 0308 0abf 0e4d 8abf
000001d0: eba1 b0bf c0d0 e13d 3075 09bf 0208 b93f
000001e0: 6efc 833f 934b 1340 70c0 06be c0f9 0d3f
000001f0: 2d56 c03f e47c 0440 1adc 3840 4207 0240
00000200: e6de 0fc0 f6be 9f3e f6e4 8bbe 5a7c 913e
00000210: 92e2 1c3f 824d 4440 98d6 aa3f 68c9 2d40
00000220: 637b 143e 6f73 8bc0 2cb3 92bf 9b43 f1bc
00000230: 3907 443f 191a 85c0 c706 09c0 6a81 8840
00000240: 7a2d d53d a4b8 583f 4865 243f a520 cd3f
00000250: a60b 59c0 aeb1 0740 0ea9 40bf c21c 9fc0
00000260: 5e85 80c0 2892 efbf ebb2 8ebe 883c 1f40
00000270: a08c e03f d939 1dc0 8831 903f 498f 2ac0
00000280: e2fe 86bf 8e5f d13e 45c3 0040 8215 fdbe
00000290: 0136 7bc0 323e 56c0 dd23 b73f 10ec 59bf
000002a0: 7812 02c0 a259 8a40 5e50 01be 0f33 4d3f
000002b0: 8c93 31bf 3119 85c0 206b 713f c056 9fc0
000002c0: 19b4 4040 e463 b3c0 582b 1bc0 b6f1 9cc0
000002d0: 79e2 12bf 0906 71c0 c6fb a3be 0e7d 10c0
000002e0: 0cb4 8cbd cd14 55bd 2aec a7bf fad7 683e
000002f0: 0a96 6abf 9ff9 a1bf 7091 1ac0 99dd b0bf
00000300: 8a38 b73e 8d70 4240 7dad 1f3f 4590 923f
00000310: 94ff a8c0 cb48 983e 7e4b 0e3f e39b 01c0
00000320: 7cf7 043f ad49 9240 4601 3d3f fd38 47c0
00000330: 8dc0 b93b cc2c 94be fab5 7abf 2a3c 59c0
00000340: e4b7 e03f bf46 94bd 694d 7e3f ba9b e43f
00000350: d7fe 1e3d 55e9 f6be 9767 12c0 5fd6 4ac0
00000360: c360 fac0 3dfe d83c 0d7d 953e f813 b7bf
00000370: fff5 c6bf 6fb3 ebbe ca3c cdbd 77a9 cfbf
00000380: f8ff 21bf 8d66 d33e 3e47 35c0 50e7 103f
00000390: 646a 26bf 1588 f0bf ca1a 98bf 7a20 2540
000003a0: b29f 1d3f 3e0c 7f40 7c79 9bc0 7a6e 1dc0
000003b0: 7fcf 693d ff65 0f40 8786 41be acf2 8e3f
000003c0: ee1c 4abf db6b 24c0 2d53 223f 24fd 5c3f
000003d0: b9f8 abc0 9e88 263f 2d8a 7a3e 2c2b 0d40
000003e0: 4b79 a7bf f4f8 24c0 e45b 33be c257 31be
000003f0: a37c 06be 988f 9bbf 0589 7c3e 045c a83f
2.3342884 -2.5842712 4.48763 -0.06316603 -0.4707958 -2.8505232 2.0862997 1.4378856
-0.9059648 2.8172543 -3.2314942 0.40367714 0.48610723 1.5973366 -2.8455913 -0.07474263
-0.6615942 -1.0725027 -0.8366877 -0.5871456 -0.816335 -0.4964102 2.3320858 3.8916497
0.8374075 -5.233142 1.0468705 -0.10797303 -1.3728806 -3.268626 -1.3588866 -1.0194758
2.1749115 4.7919884 -0.37479213 0.033740867 0.67710006 -3.6331332 0.114435345 0.5941233
-2.0182736 -3.2928884 0.600177 -1.0516739 1.3232979 0.069002435 -5.3553824 0.5587631
-0.8256083 0.18431339 1.2355956 0.4103376 -4.453056 0.5741249 -0.2649096 -4.48282
0.2193339 -3.518423 1.3433565 -0.41165996 -0.54516214 2.7711353 -4.3409214 3.4796433
1.7481328 0.25299355 0.23106444 1.0464488 -0.7274098 0.7198155 5.1021695 0.22555223
-3.5859256 -2.7815068 -1.7937917 3.621211 1.408589 -0.34941748 -4.039213 1.1236464
-1.9713411 0.45240888 -2.350513 2.780323 -2.6711442 1.3538442 1.0498413 -1.9080034
-0.7293929 -1.9286749 -0.6844679 0.33602726 -2.80843 -0.96608686 1.1849985 -4.0879307
0.79485303 0.29435456 1.8243619 1.1747932 -3.8290675 -4.7850065 2.2437267 -0.68535066
-3.727882 -4.575678 -2.5422697 -3.0403702 1.5167118 0.7625433 0.025048163 -1.4624273
3.6013331 -0.25721374 -0.53918475 -1.0804765 -1.3799413 0.11026144 -0.5369444 1.4455569
1.031141 2.3014877 -0.13159347 0.55459213 1.5026299 2.0701227 2.888434 2.031693
-2.2479796 0.3120038 -0.2732312 0.28415185 0.6128322 3.0672307 1.3346739 2.7154179
0.14500193 -4.357841 -1.1460929 -0.029451182 0.7657352 -4.1594357 -2.1410387 4.2657976
0.104090646 0.8465674 0.6421704 1.6025587 -3.391336 2.1202197 -0.75257957 -4.9722605
-4.01628 -1.8716478 -0.2787088 2.4880695 1.7542915 -2.4566557 1.1265116 -2.6649954
-1.0546534 0.40893215 2.0119183 -0.49430472 -3.9251711 -3.347546 1.430782 -0.8512583
-2.0323772 4.3234415 -0.12628314 0.80156034 -0.69365764 -4.159325 0.94304085 -4.9793396
3.0109923 -5.6059437 -2.4245205 -4.9045057 -0.5737682 -3.7659934 -0.32028025 -2.2576327
-0.06870279 -0.05202179 -1.3118947 0.22738639 -0.9163519 -1.2654303 -2.4151268 -1.3817626
0.35785323 3.0381196 0.623741 1.1450278 -5.2811985 0.29743037 0.5558394 -2.0251396
0.5194013 4.5714936 0.7383007 -3.1128533 0.005668706 -0.28940427 -0.97933924 -3.3942971
1.7556119 -0.07240056 0.9933687 1.7860024 0.038817253 -0.48224893 -2.2875726 -3.1693342
-7.8243117 0.026488418 0.2919697 -1.4302969 -1.5543822 -0.46035334 -0.1002136 -1.6223592
-0.632812 0.41289178 -2.8324733 0.56602955 -0.6500609 -1.8791529 -1.1883175 2.5801072
0.615718 3.9851222 -4.8585796 -2.459868 0.05708265 2.2406003 -0.18898974 1.1167808
-0.78950393 -2.569083 0.63408166 0.8632376 -5.3741117 0.6505221 0.24466772 2.20576
-1.3083891 -2.577695 -0.17515522 -0.17318633 -0.13133483 -1.2153196 0.24661644 1.3153081

bn1.running_var f4 [400]
00000000: 40fc e641 0744 d842 9b22 8442 a284 0c3e
00000010: 2e97 1c42 acd0 3442 cb38 7d42 8958 3042
00000020: 553e 0c42 b8f3 5042 f2f3 9042 fdfa ac3f
00000030: 6078 c842 79ab b142 3a71 2842 ee85 4242
00000040: f00d 0242 2a41 f341 b02c a642 271c 2143
00000050: baf9 df42 df10 9b41 9a1e 1d42 6223 d842
00000060: 6f3a 3642 021f 0e43 e56d 0942 3b03 603e
00000070: 3aa8 7942 c9c3 d742 9f61 4042 cd56 4642
00000080: 0131 f542 2bf2 7e42 3869 9b41 5e83 2040
00000090: 19ad 3442 0b2b 9442 f601 3342 ac51 ff42
000000a0: dd66 ae42 c786 1942 0b32 8142 898c f741
000000b0: 202f 8942 5ae0 da3e 6196 6042 c32a be41
000000c0: c0e3 5b42 0705 b742 dc85 9342 9ff8 2042
000000d0: a228 c342 0739 3742 ae79 5142 cdb9 3242
000000e0: f02e f941 81a9 3f42 bd0e 1d42 09d1 3b42
000000f0: 72ca 7142 b493 7f42 d878 9842 9b20 8642
00000100: fc89 9442 0161 1f42 7e04 eb41 c8c6 8642
00000110: 1c58 fc41 2f47 0242 9aea 8542 b23c f142
00000120: 5b84 9c42 7995 1f42 8e95 e441 c5bd 4a42
00000130: abb0 8442 4a2e 1442 7c29 9042 0d25 3a42
00000140: c6b5 9e42 a431 3e42 bc0d eb42 d323 bf42
00000150: c377 4642 1d38 c142 4553 0742 f8a5 5e42
00000160: 4a31 5242 6916 7041 675a ed41 fc11 4a42
00000170: 3c56 5542 6b3a 9c42 93ff b341 00e8 0843
00000180: 555b 0f42 fa5e 5d41 f591 1242 79f6 1242
00000190: 5568 4742 605e ac42 2507 f142 48a1 c642
000001a0: d12f f242 429d 3243 1828 7942 c74f 5442
000001b0: 2256 9e42 1776 4342 1f32 2242 358b 0c42
000001c0: 42fb d942 b653 0042 10a2 0b42 df84 af42
000001d0: 1dba 3442 c07c f741 97a2 0842 2043 a042
000001e0: dd43 9942 530a 5842 8331 2c3e ee81 1b42
000001f0: a69f 5a42 8f32 1143 6ee6 ac42 6aaf a442
00000200: 55bb e342 f249 f23e 6bcc fc41 79d7 613e
00000210: 97e8 2f42 9d67 1e43 610f 1b42 f481 2042
00000220: 4316 4b3f 9cf1 0842 a4cc 8842 c73d 8f42
00000230: dca5 9842 871e e442 b078 8142 ad6c a142
00000240: e471 c142 8bca 1242 6b9c f041 47ae 7242
00000250: 7933 a342 6c0e f441 48f0 e242 8e60 8242
00000260: 4a43 7742 e2e4 9d42 87d6 dd42 e7f9 0d43
00000270: 491f e041 8913 aa42 b757 c641 0d78 bf42
00000280: 35b5 7142 caa4 8642 7bf5 7242 4dd0 ab42
00000290: 717d 7142 5726 b942 6896 6542 d0a8 7142
000002a0: 28d2 ad42 a538 a442 58f9 f541 c580 db42
000002b0: da09 c642 5863 3042 29b0 5442 878c 5542
000002c0: b65a 1143 4d81 6f42 1132 7242 3601 c342
000002d0: 11cd 0242 254c 0643 8708 4242 f9f6 f042
000002e0: 7a1a 4e42 0f60 0a42 5921 8342 9ba3 eb3e
000002f0: b33f 6f42 26c6 2042 d415 0042 f6a9 8c42
00000300: 3704 ee41 d84b 6742 ebe7 9442 eef9 3743
00000310: 74f9 dd42 e3a7 a641 679f 9742 18e2 5a42
00000320: 2d7b a041 c67f 0543 ddb9 ae42 3a67 0142
00000330: 397d 8f3e f16a c241 f955 1642 736b 9842
00000340: 1fca 6742 918c 923e bb73 5342 4cce 6742
00000350: 3a00 ad3f 5700 0c42 55d9 e441 3cf1 7042
00000360: 3031 a742 8022 4942 3536 2d42 ba4a 0f42
00000370: 2235 3f42 1554 1d41 940b e941 a0b4 cb41
00000380: e18a 9342 5d03 b642 e6a7 b942 7fde 0f40
00000390: 4420 ee41 b128 6242 8c2e 8442 0ecf 9c42
000003a0: d9a3 3542 6b04 3f42 ca32 8c42 5f02 f242
000003b0: bda3 1642 d87d 1b42 1b7e 6f42 e60e 5c42
000003c0: 9291 8b42 ff43 cb42 edaf 5c42 864d 6942
000003d0: a6b7 c842 52d1 8442 757d 373f f599 6742
000003e0: 5a53 5142 5173 e542 1900 3342 cc76 0042
000003f0: 005a 0643 546f 1442 4dc2 f342 e759 b942
28.873169 108.132866 66.06759 0.1372247 39.147636 45.20378 63.30546 44.08646
35.06087 52.238007 72.476456 1.3514096 100.23511 88.83491 42.110573 48.63079
32.51361 30.406818 83.08728 161.10997 111.98775 19.383238 39.279884 108.06911
45.557064 142.12112 34.35732 0.21876232 62.414284 107.88239 48.095333 49.584766
122.59571 63.736492 19.426376 2.508018 45.16904 74.08407 44.751915 127.659515
87.200905 38.38162 64.59774 30.94362 68.59204 0.42749292 56.146854 23.77088
54.972412 91.50982 73.761444 40.242794 97.57936 45.80569 52.368828 44.681446
31.147919 47.91553 39.264393 46.954136 60.4477 63.89424 76.23602 67.06368
74.2695 39.84473 29.377193 67.388245 31.543022 32.569515 66.958206 120.618546
78.25851 39.89597 28.573025 50.68532 66.345055 37.045204 72.081024 46.536182
79.35503 47.548477 117.526825 95.56997 49.616955 96.6096 33.831318 55.66208
52.548134 15.005471 29.669142 50.517563 53.334213 78.1141 22.499792 136.90625
35.83919 13.835688 36.642536 36.740696 49.851887 86.184326 120.513954 99.315
121.09339 178.61429 62.289154 53.077908 79.16823 48.865322 40.548946 35.135944
108.99074 32.08175 34.908264 87.759514 45.18175 30.935913 34.15878 80.1311
76.632545 54.010082 0.16815762 38.876884 54.655907 145.1975 86.45006 82.342606
113.86588 0.4732204 31.599813 0.22054853 43.97714 158.40474 38.76502 40.126907
0.79330844 34.235947 68.39969 71.62066 76.323944 114.05962 64.73572 80.71226
96.72244 36.697796 30.076376 60.670193 81.60053 30.507042 113.4693 65.18858
61.815712 78.94704 110.919 141.97618 28.015276 85.038155 24.79283 95.734474
60.42696 67.32185 60.739727 85.90684 60.3725 92.57488 57.39688 60.414856
86.91046 82.110634 30.74675 109.7515 99.01924 44.097015 53.17203 53.387234
145.35434 59.87627 60.548893 97.502365 32.70026 134.29744 48.508327 120.48237
51.525856 34.593807 65.56513 0.4602326 59.812206 40.193504 32.021317 70.331955
29.752058 57.824066 74.452965 183.97629 110.98721 20.831976 75.81133 54.720795
20.060144 133.49911 87.363014 32.350807 0.28025225 24.302217 37.583958 76.20986
57.947384 0.2862287 52.863018 57.95146 1.3515694 35.00033 28.60612 60.23558
83.59607 50.28369 43.302937 35.822975 47.801888 9.833028 29.130653 25.463196
73.77125 91.00657 92.82793 2.247955 29.765755 56.539738 66.09091 78.4044
45.410007 47.754314 70.0992 121.00463 37.6599 38.872894 59.87315 55.01455
69.78432 101.632805 55.171803 58.325706 100.35869 66.40883 0.7167581 57.90035
52.331398 114.72523 44.750095 32.116013 134.35156 37.10872 121.87949 92.67559

fc2.weight f4 [300, 400]
00000000: 0fe0 1abf 909c afbd 674d a8be b688 2abd
00000010: 87ae abbe f3d1 da3d 7a41 bbbe 4fa4 053d
00000020: 1002 d63c 654d b0be cf94 c3bd 0cb6 b03d
00000030: 1422 b7be 7469 c63d 4d32 05bf eb18 58be
00000040: 98f3 aabe 10e7 d83d c936 cbbd 2e2d bbbe
00000050: 99e8 0e3e 9d32 54be b37c 04be cba1 7dbd
00000060: d825 c8be 90ff 2fbd 0c87 d2be 0754 613d
00000070: 0c65 a13e 5f10 b03e e59a 95be 2a4d a3be
00000080: 54fd 83be 39da 45be 20b1 f1be 7a52 243d
00000090: 7f3d 5cbd bf10 2bbd 9884 cdbd 9f09 31bf
000000a0: 5992 b33d 45c6 cbbb b749 96bd c695 42be
000000b0: 0377 08bf d2a2 aa3b 980a ac3d a3b3 55be
000000c0: 1d7f f23d d060 d3bd d3d2 1abd 2225 223d
000000d0: d221 da3c 2c72 a9be 88d5 e0be daa5 45bf
000000e0: f20b 373e 1667 b83d 68c2 83bd 2eb7 b33d
000000f0: ab0e 4abd 2439 253e b32f 50be 4e4e cf3d
00000100: 2e47 72be 2085 00bf 42b8 e8bd 4036 f7bd
00000110: 3261 54b9 4cb0 103e 5087 2f3d b996 43be
00000120: 83de ccbe 4d15 bdbe 2001 74be 2fe7 b5be
00000130: b182 633e 9626 a1be 5f67 843e 2e9b e4be
00000140: 1c62 afbe 3047 6abe d1e7 b6be ddfc f0be
00000150: d979 573e aa1b 453e 7ae6 733c 2c46 aabd
00000160: ec1b f9bc 68af 03bf c591 3a3e 3d52 66be
00000170: d14a 013b 8f3f 4a3e 35fc 87be 6132 243e
00000180: 6f4d 1dbf a10c 26bf 56ce 573e 11e2 ec3b
00000190: 9f9f 963d d37b dd3d 6207 03bf 68c9 35bf
000001a0: f0a3 d0bd d0ad 103e eaf8 5c3d 39ae bdbd
000001b0: 43a6 6bbe a793 f13d 2631 07bf fa6b 34be
000001c0: a8e0 953d ddc3 07bf aa24 a6bc cce9 a1bb
000001d0: a2ca dfbe 8b46 e13d ae78 52be ab06 a0be
000001e0: bd8b a3be 4209 4d3e ea37 36bc f9fb f3be
000001f0: edea c3be 34d9 bdbe 429f e8be 24be db3c
00000200: b639 873e cdd2 183d c003 ddbe 5e74 b8bb
00000210: e13e d03b da5e aa3d 30c1 4cbe 2e1c 943e
00000220: d3a4 f63c 239c c23d ef1e 25bd 0803 76bd
00000230: 70d9 80be dfa6 eebe 0bad a13e a5c1 3fbe
00000240: ef15 d7bd d0a5 47bd 2635 24bf d821 0c3b
00000250: d87f d1be e3db 093c d3cb 213d 8a7e 813e
00000260: 1243 33be db9d 833e 54d5 0cbf 4224 1ebe
00000270: 1c5a 1dbf 4e6b efbe e2e9 54be 2ec1 4ebe
00000280: d1dd 203e 8963 9abe 61e2 c5be 9cab d2be
00000290: 70f6 edbe c45d 19bd 13de aebe 35ba 84be
000002a0: 6818 ddbd 92df aa3d 236a 86be aea8 b6bd
000002b0: 7c1a 1f3f 0d95 34be 74b8 4c3d fe44 0c3f
000002c0: 54e1 c5bd a5e2 7fbe eac3 c9be ebd5 8fbe
000002d0: e569 71be c7b3 89be 4a2b 493c 52ad 573e
000002e0: 6f9e 4d3e e2b7 c1bd 6227 62be 3fa6 ee3c
000002f0: 760f e9be e513 f0bc 1860 663e a04c af3d
00000300: 676b 5ebf 9b30 17be b253 fdbc 9b19 e33d
00000310: ec84 b7be 27bb 25bf c091 34be 9284 543d
00000320: ef59 92be 71cb 3bbf d8b8 43bf f393 10be
00000330: ec81 043c 4e2e 53bd cd33 fabc 468d a9be
00000340: ec68 a3be 17a8 39bd d5ca 88bd 2967 1fbf
00000350: bff3 483d 047f 0fbe 3057 00be 0f35 2ebd
00000360: 74b6 16bd b8ba 04bf bf71 34bc fd21 b7be
00000370: 4d0a c6bb 5db4 b63a 4ee4 7f3d 9cd4 e2bc
00000380: ffbd 153e aa1e cf3d c6ba 25be 4af3 d9bc
00000390: b06e bbbd 55a9 ddbe cd68 773c a16b ccbd
000003a0: a8c5 9cbe b237 7dbe 7e9a f3be 6436 76bf
000003b0: c3c9 163e 19ae 0dbe a537 ec3d fa88 f2be
000003c0: f57a 94be 846e 31be 8cb4 58bd c58c 5fbd
000003d0: 0ad6 e2bd 06f7 20be 2b5c 19bd 0eb9 69be
000003e0: 1107 d0be 137d 6abc 1d33 45be c541 8b3e
000003f0: 25f5 8fbe 1831 5dbf bf88 16be 988f 42bd
-0.60498136 -0.08574784 -0.32871553 -0.041634284 -0.3353159 0.10684576 -0.36573392 0.0326274
0.02612403 -0.34434047 -0.09549867 0.08628473 -0.35768187 0.09688082 -0.5202988 -0.21103255
-0.33388972 0.10590947 -0.09922559 -0.36557907 0.13955916 -0.20722432 -0.12938194 -0.061921876
-0.39091372 -0.042968333 -0.41118658 0.055011775 0.31522405 0.3438749 -0.29219738 -0.3189481
-0.25779212 -0.19321527 -0.47205448 0.04011772 -0.053769585 -0.041764017 -0.10035056 -0.69155306
0.08768148 -0.006218704 -0.07338279 -0.19002447 -0.533066 0.005207398 0.08400458 -0.20869307
0.11840651 -0.103212 -0.037798714 0.039586194 0.026627455 -0.3309492 -0.4391291 -0.77206194
0.1787565 0.09004037 -0.064335644 0.08775173 -0.049330395 0.16135079 -0.20330696 0.10122357
-0.23659965 -0.5020313 -0.113632694 -0.12070894 -0.00020254104 0.14129752 0.042853653 -0.19100465
-0.40013513 -0.36930314 -0.23828554 -0.35527942 0.22217824 -0.3147475 0.25860116 -0.44649643
-0.3425454 -0.22878718 -0.35723737 -0.4706792 0.21042575 0.19248834 0.014886493 -0.083141655
-0.030408822 -0.51439524 0.18219669 -0.22492309 0.0019728432 0.19750808 -0.26559606 0.16034843
-0.6144628 -0.6486302 0.21074805 0.0072290977 0.07354664 0.10814633 -0.5118314 -0.71010447
-0.101875186 0.14128804 0.05394832 -0.09261746 -0.23012643 0.117957406 -0.5280937 -0.17619315
0.073182404 -0.5303324 -0.020281155 -0.004941201 -0.43709284 0.10999783 -0.20553848 -0.31255087
-0.3194255 0.20023063 -0.011121729 -0.47653177 -0.38265172 -0.37079775 -0.45434004 0.026824065
0.26411217 0.03731041 -0.43166924 -0.0056291064 0.006355152 0.08318873 -0.1999557 0.2892775
0.030107891 0.09502437 -0.040312704 -0.060061485 -0.25165892 -0.46611688 0.31577334 -0.18726213
-0.105022304 -0.048742115 -0.641436 0.0021382477 -0.4091785 0.0084142415 0.039501023 0.25291854
-0.17506054 0.25706372 -0.5501301 -0.15443519 -0.6146562 -0.46761554 -0.20792344 -0.2019088
0.15709616 -0.30154064 -0.38649276 -0.41146553 -0.4647708 -0.037442937 -0.34153804 -0.25923315
-0.10795671 0.08343424 -0.2625285 -0.08918892 0.62149787 -0.17634983 0.049980596 0.54792774
-0.096621186 -0.24988802 -0.39407283 -0.28092894 -0.23575552 -0.26894972 0.012278387 0.2106221
0.20079969 -0.09458901 -0.22085336 0.029132007 -0.45519608 -0.029306361 0.22497594 0.08559537
-0.8688263 -0.14764635 -0.030923698 0.11088868 -0.358436 -0.64738697 -0.17633724 0.05188424
-0.2858424 -0.733573 -0.76453924 -0.14118938 0.008087616 -0.05155783 -0.030542279 -0.33115596
-0.31915987 -0.04532632 -0.06679312 -0.62266785 0.04906058 -0.14013296 -0.1253326 -0.04253107
-0.036795095 -0.5184741 -0.011013447 -0.35768119 -0.0060437084 0.001393925 0.062473588 -0.02768927
0.14623259 0.101132706 -0.1618453 -0.026605267 -0.09151971 -0.43293253 0.01510067 -0.09981466
-0.3061955 -0.24728277 -0.47578806 -0.96176744 0.14725403 -0.13835944 0.11534051 -0.4737013
-0.2900006 -0.17327315 -0.052906558 -0.054577608 -0.11075981 -0.15719232 -0.037441414 -0.22824499
-0.4063039 -0.014312047 -0.1925778 0.27198616 -0.28116718 -0.86403036 -0.14700602 -0.047500223

fc2.bias f4 [300]
00000000: 7843 08be d92c 9b3e 3c74 d5bd 7b01 a9bd
00000010: 1a87 75bf d63f f2bc cfe2 2ebf 2ec6 35bd
00000020: 2c5a c4bd 2fdd 9fbe c897 bfbc ff71 a0bf
00000030: 5a4b d6bd eca0 e8bd aecd 893e 2212 86bd
00000040: 9581 57bd efe7 24c0 e6c4 e4bd ebaa 93bf
00000050: c4ae 32be 7457 1e3e d9cc 79bf b1ee a1be
00000060: 4186 c5be 8d14 d0bd 1f48 c6bd 748d 993c
00000070: c06e 31bf 5d99 09be e75d 7bbe 599b 4bbe
00000080: dbb0 50bf 7a64 c4be 80df bfbd 6a9d 4ebf
00000090: 78bf a2bf 1026 26bf 8203 a6bf 35c2 67bd
000000a0: 5668 c3be 72a6 c5bc b675 f93e bb57 09bd
000000b0: 7074 27bf 6004 66bf fcb9 2fbf 9191 87bf
000000c0: e0a4 4dbf 63d6 89bd 8015 bcbe 33d7 8cbf
000000d0: d887 bbbd c53d 1f3d a838 00be cf60 0abf
000000e0: 89af 3dbf 8ea4 a2bd 1a5c 38bf 3232 893e
000000f0: 3c15 95bf 85d8 99be 70a9 cbbe 95a3 2abf
00000100: 7ee9 b93d a1dc d73e 6ce6 f1bf 9775 aabd
00000110: 111e f4bf c1ef b0be 5439 c7bf 125d 37bf
00000120: 7775 f03e 229d 213e 33b7 293f c4fd 9dbf
00000130: b005 523d 626e a0bd 6d03 b7bd b277 debd
00000140: 18dc fcb8 87fa b93e bc55 a43e 8d99 79bf
00000150: bc23 00bd ad5d 76bf aeef 1bbf f3d1 97bf
00000160: 209d 61bd 8262 48bf b8f7 16bd c139 9dbf
00000170: 9217 c1be ac13 0abf 3b4b 19c0 96ea 3cbd
00000180: ccf7 86bf c728 57bf 14c6 e3be 5aab 98bf
00000190: d87b d7bf 40b6 c7be a648 8bbd ca6c e33e
000001a0: 2db8 60bd 6d1f 42bd 3226 c0bd 4461 c7bd
000001b0: e85a c4bd 4d88 ef3e ceec 5cbf a50f 82bf
000001c0: ab6b 19bf 66d4 1bbf 90a6 5abf a688 c7bd
000001d0: 22ac 09be 7178 27bf 653c a73a 332f 5ebd
000001e0: 5d70 18bf d762 9abd 5f02 9dbe 5cc1 00be
000001f0: 6803 11bf 19e4 edbe 8b6a 9fbd ac73 2cbf
00000200: d915 453e fa06 7fbe eba8 35bf 4b6f 72be
00000210: f78b 02bf e927 89be 15fe 9ebd dc5f b3bf
00000220: 4020 bbbf 5238 97bf 1370 85bd 4d21 ebbe
00000230: 145b 24be d911 fdbd 6303 813d 3289 34bd
00000240: 52b6 b4bd c9ac ca3e ab6c 17bf 3ff4 68be
00000250: ac89 983d 7395 61bd 3d4e 053f 1bab bdbd
00000260: 1557 e8be 712c c9bd 6fd7 11bf 0686 a0be
00000270: 52c6 47bf febf 3ebf 4a93 f4be 7021 65be
00000280: d2a8 c5be 389a 39bd dfd1 8bbf 2ea7 a6bf
00000290: 87d2 38bd 851f c0be 4d54 f53a 34dc 4cbd
000002a0: 6d51 c2bd 716d aabe a438 84bf b462 9bbd
000002b0: f8a9 2fbc 3bed c8be d20d 2cbe bf0a 833b
000002c0: cc48 1cbd 044d c6bf b5af f0be d8a7 54bf
000002d0: c00c 313e 03bb 2abd 4646 03bf c633 0ebf
000002e0: 7f2d e3bf 385c 7a3d faeb bbbe 3343 123e
000002f0: beea de3d 30a9 9ebd 76b2 fabd 9355 b8bd
00000300: 5e96 143f b1e0 1cbd 041e d8be 2138 89bd
00000310: 8717 213e 8ec2 fe3e 8d98 7fbd fcc8 8bbd
00000320: 2f23 c13e aa50 f4be 8e91 08be 7fa9 70bf
00000330: fa7d 8abd 5a59 acbe 0e21 17be ad2e f3be
00000340: 8ca3 10bf 2cbb b3be b84f 95bf c0b8 093e
00000350: 2946 7abd 3606 2cbf db7e 81bf d12b a5bf
00000360: 6428 7bbf e12d d6bd ebc1 96be 0fbc 19bf
00000370: b77c 9fbe b474 a2bd 8c15 d6be e0a1 e5be
00000380: ddb0 6fbf 988c 13c0 71b0 e4bd f70d eb3e
00000390: 853b 1b3e 1498 39be 53ef 50bd 90c7 75bf
000003a0: c898 bfbd 1dca 79bf 7508 71bd b608 c6bc
000003b0: b9e9 88bf 23e5 49be b3ef c4bd af59 c9bc
000003c0: 4d45 e2be 9ff6 aebd 0b84 a23d 95b8 a8bd
000003d0: 7355 b0bd 1c7f d4bf 1855 cbbe 17c6 023f
000003e0: bf72 c4bf 1968 bbbd d4d3 28bd 9b65 6ebf
000003f0: b1d5 55bd 6d12 083f cbd3 f0bd a7bb 30bd
-0.13306987 0.30307654 -0.104225606 -0.082522355 -0.95909274 -0.029571455 -0.6831483 -0.044378452
-0.095875114 -0.31223437 -0.023387805 -1.2534789 -0.10463591 -0.113588184 0.26914734 -0.06546427
-0.052613813 -2.576656 -0.11170368 -1.1536535 -0.1744948 0.15463048 -0.975782 -0.3162742
-0.3857899 -0.1016017 -0.09681725 0.018744208 -0.69309616 -0.1343741 -0.2454754 -0.19883479
-0.8151986 -0.38357908 -0.09368801 -0.80708945 -1.2714682 -0.6490183 -1.296982 -0.056581695
-0.3816554 -0.024127219 0.4872262 -0.033530932 -0.65412045 -0.89850426 -0.68643165 -1.0591298
-0.80329704 -0.06730344 -0.36735153 -1.1003174 -0.091567695 0.038877267 -0.12521613 -0.5405397
-0.7409597 -0.079415426 -0.72015536 0.26796108 -1.1647105 -0.30048004 -0.39777708 -0.66655856
0.09077738 0.42160514 -1.8898444 -0.0832321 -1.9071676 -0.34557918 -1.556437 -0.7162639
0.4696462 0.15782598 0.66295165 -1.2343068 0.051274955 -0.07833554 -0.089362 -0.10862674
-0.00012057292 0.3632395 0.3209666 -0.97499925 -0.03128408 -0.9623669 -0.609126 -1.1860946
-0.055081487 -0.7827531 -0.036857337 -1.228325 -0.37713295 -0.53936267 -2.3952167 -0.046122156
-1.0544372 -0.84046596 -0.4448706 -1.1927292 -1.6834669 -0.39006233 -0.06800966 0.44418937
-0.054863144 -0.04739325 -0.09382285 -0.09735349 -0.095876515 0.46783677 -0.86298835 -1.0161024
-0.59929913 -0.6087097 -0.85410404 -0.097428605 -0.1344457 -0.65418154 0.0012759088 -0.05424423
-0.5954645 -0.075383835 -0.30665872 -0.12573761 -0.5664582 -0.46463087 -0.07783993 -0.67364
0.19246615 -0.24905005 -0.70960873 -0.23675267 -0.5099482 -0.26788262 -0.07763306 -1.4013629
-1.4619217 -1.1814063 -0.06515517 -0.45923844 -0.16050369 -0.1235692 0.06299474 -0.044076152
-0.08823837 0.3958495 -0.5915019 -0.22749422 0.07448134 -0.055074167 0.5207251 -0.092611514
-0.45378938 -0.0982293 -0.5696935 -0.31352252 -0.7803699 -0.74511707 -0.47768623 -0.22376037
-0.38605362 -0.04531309 -1.0923423 -1.3019769 -0.04512265 -0.37524047 0.001871714 -0.05001469
-0.09488187 -0.33286622 -1.0329785 -0.075871855 -0.010721676 -0.39243492 -0.16802147 0.003999084
-0.038155362 -1.5492253 -0.47009054 -0.8306861 0.1729002 -0.041682255 -0.51279104 -0.5554775
-1.7748259 0.061123103 -0.36703473 0.14283447 0.10884617 -0.07747114 -0.1224107 -0.09000697
0.5804194 -0.03830022 -0.422104 -0.06700159 0.15731631 0.49757808 -0.062401343 -0.06825444
0.37722155 -0.47717792 -0.13336775 -0.9400863 -0.06762309 -0.3366192 -0.14758703 -0.47496548
-0.5649955 -0.35103738 -1.1664953 0.13449383 -0.061102066 -0.6719698 -1.0116838 -1.2903997
-0.98108506 -0.104579695 -0.29444823 -0.6005258 -0.31149837 -0.079324156 -0.41813314 -0.44850063
-0.93629247 -2.3054562 -0.11166466 0.45909092 0.15159424 -0.1812442 -0.051009487 -0.96007633
-0.093553126 -0.97574025 -0.058845956 -0.024174076 -1.0696326 -0.19716315 -0.096160315 -0.024578897
-0.44193497 -0.08543133 0.079353414 -0.08238331 -0.08610048 -1.6601291 -0.3971336 0.5108351
-1.5347518 -0.091507144 -0.04121764 -0.9312379 -0.052205745 0.53153116 -0.11759146 -0.04314771
