critic_single.pth (torch_old, 549566 bytes, 9 tensors)

fc1.weight f4 [400, 33]
00000000: 84c3 343d ba3f 35b9 995c 433c 0bde eebd
00000010: 0809 61be 4c88 ef3d c0e9 7ebd c5b2 f1bb
00000020: 9c21 363d 3687 3f3d 18cd 9d3c de53 a43b
00000030: 0165 1c3c 13bb c6bc 566b 49bb 2035 153b
00000040: c8d8 103e 27b5 7ab8 747f 7cbd 03b1 09bd
00000050: 3df8 e1bb ee63 273c 0ece 13b9 73d1 ba3a
00000060: c77e 16b9 18f1 1339 7973 da3d e658 fabb
00000070: 74f9 3b3e 98a2 54bc 5892 35bc b7dd febc
00000080: 5897 2d41 5c98 523e c3fe d83c 1e78 81bf
00000090: 74ca c3be 7eef 663f c69b c63f 83a4 74bf
000000a0: 2a8c 2ebe f4d7 9f3f 5721 e63e 3e09 7bbf
000000b0: 5ffb a1be 30b0 f83e 937a a13f 8fe1 40bf
000000c0: a91d b23e a7ea 943e 1f22 323f a757 813e
000000d0: 9dc5 783e d716 2ebf e789 1d3f 0737 483e
000000e0: 7f30 2cbf a7ff d2be b2b8 013f 34e9 a0bd
000000f0: 90f6 43bd 7880 e13e 4066 38bd 78de 8f3b
00000100: 2c11 743c 1773 513f 1db7 99be a53b 863e
00000110: af35 e93c b4f1 09bf c170 12c0 6d85 90be
00000120: f98c 29bf 9773 77be ff0f cabf d1f2 08bf
00000130: 7bcd eebe 6da7 81bf e4d8 343f 4bf6 023e
00000140: df53 513e ffaa 77bf 641e 34be 5ad8 a640
00000150: 81f7 4fbf 178f 4fbf 6082 433e 4514 f8bd
00000160: d5fc 3abe 3dee 8b3b 1366 f53b 56c6 5c3e
00000170: dd03 d73d db6d 403d f2fc 3d3e 2057 16bc
00000180: a8fa 3ebc dac5 bcbc e285 4a3f 4cb2 163d
00000190: 5438 9dbd b34f ebbc 6a27 8bbd 7488 88bb
000001a0: 9fcf 0d3c 04b1 483b efa1 d0bb 9d90 9639
000001b0: 6823 943d 7a09 453a 31ce 68bd a81d 40bd
000001c0: 6715 44bd e327 9cbd d750 88bb b621 7a3c
000001d0: 868b 83bd 0d02 c73c 02ab ebbc f056 e4bd
000001e0: 5502 193c 700b 62bb 3ebf 2e3d 221c 48bc
000001f0: 10fd 2ebd 5983 03bd 58ee 4abd e8f4 563c
00000200: a856 86bb 43ca 3dbd 756c 45bd 3dd6 86bd
00000210: fe0a 69be 583d 6fbf 1666 acbe 1fca 803e
00000220: 5351 1ebf 745f ef3d b1d4 a1bd e331 813e
00000230: f0c2 9a3f 27a9 eb3f 0da2 6ebe 7be2 023e
00000240: 6d96 15bf 0264 ec3e 37d3 a93e 94e7 9e3e
00000250: aada 7dc0 6239 85bf b965 5ac0 fbe0 893f
00000260: 137a 91bf 47bc 59bf 34eb 1ebe 256b e23d
00000270: 7dfc 0dbe fd86 d13e 40d5 373d 6287 31bd
00000280: ffb6 283e 5427 413c 26e2 5d3c 4a6a b7bc
00000290: 4d8c 3b3e 4e48 a4bf f4cc 5fbf 0d1c 7abf
000002a0: 918c 38bf d199 763f 3673 ee3e 73be 35bf
000002b0: e7a1 393f 08d6 f0bf 6995 583f 1dc6 2bbc
000002c0: 90c9 5fbe e8b1 363f db28 003f ed0b 4abf
000002d0: a262 863f 2219 943f 832b e83e 6959 b93e
000002e0: 702d eebf d910 19bf 5073 a7be e072 283f
000002f0: a162 e33e c575 643e bb27 113d 9f71 9f3e
00000300: 1bc8 343c 1153 aabe 7078 bebc 2501 243c
00000310: cd60 31bd 779a 8e3f 58ef 173f b94e d53e
00000320: 612d debe 48ec 87be 52c8 e93e 6b2c 38bf
00000330: 266d d13b 40b3 d23e 3c1e 823f 1ca3 0fbf
00000340: 5cb5 b53d e67b 493e 7305 e7be a508 e13f
00000350: 5621 76bf 8d21 783f 3c7b fc3f a334 1dbf
00000360: 24f5 723f 4fe9 6c3f 89db 8fbe 9eed 8cbd
00000370: 1d31 3c3f 7d82 123f 4774 ebbd 1fe7 173f
00000380: 2556 853e c9a7 12bd d7bb 40bf c00f 16bc
00000390: 006d 06bd 49f3 423d fc77 593c 2727 8fbe
000003a0: 3402 3f3e 787a 06bf 47e4 d9be 7ea0 64bd
000003b0: 69a8 df3d b179 b9be 8c2e bc3e fabf a03e
000003c0: c947 d23f 471d 91bd b7a3 873c 5613 e33e
000003d0: 36a9 133f 4bdf 9bbe 7c51 3f3f 789b bcbf
000003e0: d251 393e d7e7 5d3f 025e 1bbf fbfa 603b
000003f0: 257b 4fbe dd4f 373d d0dd 813e c9b9 dc3e
0.04413177 -0.00017285245 0.0119239325 -0.11663445 -0.21976101 0.116959184 -0.06223464 -0.0073760473
0.044465646 0.046759807 0.019262835 0.0050148806 0.009545566 -0.024259126 -0.0030734143 0.002276726
0.14145195 -5.9773356e-05 -0.061644986 -0.033616077 -0.0068960474 0.010216696 -0.00014095774 0.0014253095
-0.00014352343 0.00014108827 0.10666556 -0.007639992 0.18356878 -0.0129782185 -0.011082254 -0.031111581
10.849449 0.20565933 0.026488667 -1.0114782 -0.38240397 0.90209186 1.5516288 -0.95563525
-0.17045656 1.2487779 0.4494731 -0.9806098 -0.31637093 0.4857192 1.2615532 -0.75344175
0.34788254 0.29085276 0.69583315 0.25262186 0.24294133 -0.680036 0.6153855 0.19552241
-0.672615 -0.41210672 0.5067245 -0.0785698 -0.047842562 0.44043326 -0.04501939 0.004390534
0.014896672 0.8181624 -0.30022517 0.2621738 0.028467981 -0.53884435 -2.288132 -0.28226796
-0.6623073 -0.24165188 -1.5786132 -0.5349551 -0.46641144 -1.0129219 0.7064345 0.12789266
0.2044215 -0.96745294 -0.17589718 5.21391 -0.81237036 -0.8107771 0.19092703 -0.12113241
-0.1826051 0.0042703436 0.007488975 0.21560034 0.10498784 0.046979766 0.18553522 -0.009176046
-0.011656441 -0.023043562 0.7911054 0.03679113 -0.07676759 -0.028724527 -0.06794627 -0.004166657
0.008655458 0.0030623088 -0.0063669602 0.00028717975 0.07233316 0.0007516366 -0.056837264 -0.046903282
-0.047871973 -0.07624795 -0.0041600275 0.015266826 -0.06423096 0.02429297 -0.028768066 -0.111493945
0.009338935 -0.003449168 0.04266285 -0.012213739 -0.042721808 -0.032107685 -0.04954371 0.013119914
-0.0040996857 -0.04633547 -0.048199136 -0.065838315 -0.227581 -0.9345298 -0.33671635 0.25154206
-0.6184284 0.11688128 -0.07901896 0.25233373 1.209074 1.8410996 -0.23304005 0.12781708
-0.58432657 0.4617005 0.33168957 0.31036055 -3.9664712 -1.0408137 -3.4124587 1.0771784
-1.1365379 -0.85052913 -0.1551941 0.110555924 -0.13865848 0.409233 0.044881105 -0.043342
0.16476057 0.011789162 0.0135426875 -0.02238955 0.18315239 -1.2834566 -0.8742211 -0.9769905
-0.7208949 0.96328455 0.46572274 -0.7099373 0.7251267 -1.8815317 0.8460298 -0.010484246
-0.21854234 0.71365213 0.5006234 -0.7892445 1.049885 1.157017 0.45345697 0.36201027
-1.8607616 -0.5979133 -0.32705164 0.65800285 0.44411185 0.2231055 0.03543828 0.31141374
0.011034037 -0.332665 -0.023250788 0.0100100385 -0.043305207 1.1140889 0.59349585 0.41661623
-0.43393996 -0.26547456 0.45660645 -0.71942776 0.0063911853 0.41152382 1.0165477 -0.5610826
0.08872482 0.1967617 -0.45121345 1.7580763 -0.96144617 0.96926194 1.9725108 -0.6140844
0.94905305 0.925435 -0.2809718 -0.068812594 0.7351244 0.5723036 -0.114967875 0.5933704
0.26042286 -0.035804544 -0.7528662 -0.0091590285 -0.032818794 0.047595296 0.013273235 -0.27959558
0.18653184 -0.5253062 -0.42556974 -0.05581712 0.109207936 -0.36225656 0.36754262 0.31396466
1.6428157 -0.07085662 0.016557558 0.4435069 0.5768007 -0.30443797 0.7473371 -1.4734945
0.18097618 0.86681885 -0.6069032 0.0034329284 -0.2026182 0.044753898 0.25364542 0.43110493

fc1.bias f4 [400]
00000000: 9ae2 82bd 8f60 8d3d 696d afbb e024 26bd
00000010: 7056 d5bd 34a0 873d 0cd4 eabd f2fc 04be
00000020: fd86 b83d 6317 e03b 0943 fe3d 408b b5bd
00000030: 72ad 16be 2bd3 ea3d b5b0 5f3d ff11 463d
00000040: 2abd 443d 0ae6 91bd 2338 f73d 798a 08be
00000050: 8e80 263d c970 8d3d 24b0 77bd 61b0 aabd
00000060: cc23 41bd c24b 113e 69a1 1a3e d905 f63c
00000070: 30ae 3d3b 2d0e e33d 1578 febd c21c 283d
00000080: a1e5 e6bd 630c 523d 91b3 143e 9271 8e3d
00000090: 4df1 883d 8f36 0f3c 4248 06be a49f 17bd
000000a0: 251e c43b bbab bcbd 8730 243e 6d54 843d
000000b0: bbaa 243e 13fe 0abe 48f4 0c3e b0c6 c9bd
000000c0: 144e 28bd c998 c83c eb5f 143e 4b17 abbd
000000d0: eb63 043e e8c6 be3d 2654 ebbd 3a4b 0a3e
000000e0: a9dd 003c 521e 073e 99ae 09be ab17 e93d
000000f0: d13e 52bc 0956 14be 2a98 403d 3b35 26bd
00000100: df06 f6bd 2cd2 c6bd b88e 2dbe ee8d b83d
00000110: bd6f 25be dc39 853d 0f45 f1bc 6435 7c3c
00000120: 9bb4 933d 8721 11be 1b37 293e 018c 8abc
00000130: 78f9 bdbd a570 213e 3792 cc3d 0d25 d8bc
00000140: caa7 42bc 2d0f f33d 00cd 303e 0343 3cbc
00000150: d9c2 16be 8ca4 febd 6ad8 ffbd 1fc7 dbbd
00000160: 2c36 fdbd be4d 1abe cfa6 0a3e 519b 0dbe
00000170: 8eec 023b bb68 ecbc 8589 213e 7caa 143e
00000180: d266 933d 536b 0c3e 90a0 ef3c 1e7b 8dbb
00000190: f06e 903d b3c5 e8bd 43ec db3d 0a4d 423d
000001a0: 7cda 0d3c f012 98bd fe7e 173e d083 103c
000001b0: d22f c9bc c19d a8bd e48c e33c c010 90bd
000001c0: b3e2 0fbe 626d 023e 5c82 b63d 7535 a93d
000001d0: 6439 aa3d 53cd 673d 5c48 9b3d 7b78 bf3c
000001e0: 114a abbd a473 c83d ac84 c53d d8be 55bd
000001f0: 8048 14bd 26fc e5bd 192f 82bd b58a 1e3e
00000200: 3a34 a43d 445a bb3d 754f 27be 7cd2 ba3d
00000210: 0306 d1bd 30cc 153e 738c dabb f671 98bd
00000220: cf29 cc3d afff 7bbc d3f9 a13d 8922 993d
00000230: 748e 5dbd f75d 2cbd c3ec f8bd f65e e6bc
00000240: a2ce b1bd eb53 833b 1198 17be b400 7e3d
00000250: 6bb0 12be 102c 73bc 6cf2 05be 2ee5 fabc
00000260: 1896 8d3d 880e 29be 0211 2bbe 4ac8 c8bd
00000270: 34fe 0f3e 4f35 4fbd 8a88 343d 8cef 243e
00000280: b5c5 fabb d869 793c 0814 eb3d 4d82 97bd
00000290: 250e 63bd 2daf e3bd bac8 7f3d f2ef 813c
000002a0: e4da bd3d 82ac e53d b290 233d 5f15 033e
000002b0: 78cc 9a3c 7bc9 f33d 86f1 a8bd 7bab c9bd
000002c0: 693c 06bc fed1 1a3e 81e2 013e 01a8 0abe
000002d0: ceae 313e 4b37 0cbb 3ade 11be 58a6 893b
000002e0: 8bd5 063e 9975 9cbc 8316 97bd efe3 0cbd
000002f0: 8ff2 1a3d 4997 e2bd 2f75 dabc 6799 7cbc
00000300: 1515 2b3d a3a7 b13d f331 1b3e 5e5e 043e
00000310: 5aef c93d f2a2 01bd e706 333d 561c 19be
00000320: c228 adbd b297 1b3e 9997 76bd b282 3fbd
00000330: f055 0ebd f306 bc3d e755 1abe ce30 143d
00000340: c5b8 283e 6095 fbbd 0fe2 c8bd d36f d03d
00000350: 2136 03be 219a 1b3e 536d 42bd 58c8 dbbc
00000360: 9d2a 2fbe 4d01 bbbd 9e47 6bbd f847 26be
00000370: 93c7 30bd 00c4 433c 63b0 4c3c 7f66 ff3b
00000380: 62a6 5dbd 282d 4bbd ac4f 5f3a 5e67 c6bd
00000390: ee95 513c 697b da3c 47dd 1d3e bada d83b
000003a0: 3907 4cbd 1133 a3bd 9f2c eb3d c567 583d
000003b0: 294b a73c 6e70 0abd bb15 273e 810f 30be
000003c0: 70cc 2d3e 5df3 02be 9b3c 13be 9b10 8a3d
000003d0: c1d1 103c 310b bfbc e44b a63d ee5d 1fbe
000003e0: ae0e bcbd fcc8 283e b7d0 f0bd 773a 0b3c
000003f0: 954d 97bc 4d16 a5bc 6a8c 8c3d 3b8f ad3d
-0.06390877 0.06903183 -0.005353619 -0.04056251 -0.10416877 0.06622353 -0.11466226 -0.12987116
0.09010122 0.0068387254 0.1241513 -0.088644505 -0.14714602 0.11466058 0.05461188 0.048357006
0.048031963 -0.071239546 0.12071254 -0.13334073 0.040649943 0.06906278 -0.060470715 -0.08334423
-0.04715328 0.14189056 0.15100636 0.030032085 0.0028942935 0.11086688 -0.124252476 0.04104305
-0.11274267 0.051281344 0.14521624 0.069552556 0.066866495 0.008741035 -0.13113502 -0.03701748
0.005985039 -0.092124425 0.16034137 0.064614154 0.16080754 -0.13573484 0.13765061 -0.0985235
-0.041090086 0.024486916 0.14489715 -0.08354052 0.1292874 0.09315282 -0.114906594 0.13505259
0.007865348 0.1319516 -0.1344551 0.113814674 -0.012832359 -0.14485945 0.047020115 -0.04057811
-0.12013029 -0.09708056 -0.16948974 0.09011446 -0.16155906 0.065051764 -0.029451875 0.015393589
0.07212182 -0.14172946 0.16524927 -0.016912462 -0.09276098 0.15765627 0.09988826 -0.026384855
-0.011880824 0.11868129 0.17265701 -0.011490586 -0.14722766 -0.124337286 -0.124924496 -0.10731339
-0.12363848 -0.15068719 0.13540195 -0.1382878 0.0019977423 -0.028858533 0.15775116 0.1451816
0.07197346 0.13712816 0.029251367 -0.004317655 0.0705241 -0.11365833 0.10738423 0.04743675
0.008658048 -0.07425487 0.14794537 0.008820489 -0.024558935 -0.08233214 0.027777143 -0.07034445
-0.14051323 0.12737039 0.08911583 0.08262149 0.08311728 0.056592297 0.07582161 0.02337288
-0.083637364 0.09787682 0.09644446 -0.052183956 -0.036201954 -0.11229734 -0.063566394 0.154826
0.08017774 0.09148076 -0.16338904 0.09122178 -0.10206225 0.14628673 -0.006669575 -0.07443611
0.09968912 -0.015380784 0.07908978 0.0747729 -0.054090932 -0.0420818 -0.12154534 -0.028121453
-0.0868199 0.0040078065 -0.14804102 0.06201239 -0.1432511 -0.014842048 -0.13080758 -0.03062686
0.06913394 -0.1650945 -0.16705707 -0.09803827 0.14061815 -0.05058795 0.044075526 0.16107005
-0.007652963 0.015222989 0.1147843 -0.073979 -0.05543341 -0.111173965 0.062447287 0.015861485
0.09270266 0.11214544 0.039932914 0.12801121 0.018896326 0.11903664 -0.08249192 -0.098471604
-0.008193114 0.15119168 0.1268406 -0.13540651 0.17351839 -0.0021395262 -0.14244929 0.004200738
0.13167398 -0.019099044 -0.07377341 -0.034397062 0.03782898 -0.110640116 -0.026667206 -0.015417433
0.041768152 0.08674552 0.15155773 0.12926623 0.09860106 -0.031649537 0.043707754 -0.14952216
-0.084550396 0.15194586 -0.06020317 -0.0467555 -0.034749925 0.09181013 -0.15071832 0.036179356
0.16476734 -0.122843504 -0.09808742 0.10177579 -0.12813617 0.15195514 -0.04746754 -0.02682893
-0.171061 -0.091311075 -0.057441346 -0.16238391 -0.04315908 0.0119485855 0.012493226 0.007794201
-0.054113753 -0.04960361 0.0008518647 -0.096876845 0.012792094 0.026670175 0.15416442 0.006617871
-0.049811576 -0.079687245 0.1148312 0.052833337 0.020421581 -0.033798628 0.16316883 -0.17193414
0.16972518 -0.12788148 -0.14378588 0.067414485 0.008839072 -0.023320766 0.08119944 -0.15563175
-0.091824874 0.1648292 -0.11758559 0.008497826 -0.018469611 -0.020152235 0.06862719 0.08474585

bn1.weight f4 [400]
00000000: c7b6 9f3f 1c7d dd3e 1f54 9d3e 91e6 9d3b
00000010: 8aac d13e 6560 883e a60f 033f 025a ca3e
00000020: f706 183f 1819 cf3e a4ed 643e e6ca cf3e
00000030: ed41 b73e 5a99 393f ac38 843e c186 bb3e
00000040: bc2a 113f fec2 fe3e b88b b63e 0a0e 9b3e
00000050: 595c 583f efd3 d13e e2be d93e ac43 b43f
00000060: 2d24 033f 5578 fd3e e253 1c3e 2c3a 6c3f
00000070: 41d1 df3e ec7e ae3e 260b c83e db38 ba3e
00000080: 2834 933e a9c7 a23f 9249 e63e 5737 8a3e
00000090: 91fa f03e d18e 7e3e 4bf3 6b3e 3bd5 683e
000000a0: 6790 d73e d8ab eb3e bd59 173f 0111 643e
000000b0: 9a8c 9b3e c4e8 cf3e f419 de3e 97d7 703e
000000c0: 8ac8 e63e 5714 bc3e 943a cd3e a7e2 e13e
000000d0: e083 fa3e 04b0 c73e 14d9 f03e bf2a 9f3f
000000e0: 6500 1a3f 0e6d 703e 3c31 d33e 4ae2 f73e
000000f0: 1c26 e43e a37a c63e a74b a03f c070 9d3f
00000100: 02ce f63e 66c4 843e 4e05 f53e a4e3 d93e
00000110: af52 e63e 35bb 033f 26b9 643e 47ac a13e
00000120: 58a1 453f c63d ec3e c3a9 e43e 1846 a63e
00000130: 5a9a b63e db2e 9c3e 6efd d93e 5ed7 e13e
00000140: c94a 083f 567e 2d3f 9fcb df3e 3e9d 9b3e
00000150: f4c4 a23e 54cb cb3e b240 013f dba8 7e3e
00000160: cee4 063f 3eda 353e 1604 083f 8a5f 123f
00000170: 307b dc3e c733 e23e 1512 1e3f a36d 923f
00000180: c774 a73e f5a2 953e 1683 973b 37b5 f33e
00000190: 8590 873e 30b0 d43e ac75 9c3f 065d 923e
000001a0: a34f ef3e 3969 b33e 633f c73e 62b1 db3e
000001b0: 834a 183f 76c6 a13e a1d2 f03e 825e 483e
000001c0: e776 9f3e 614a c83e 09a2 aa3e 84ad 0e3f
000001d0: 9f4c c03e 10c4 153f 6fb7 093f fa87 e43e
000001e0: 6311 b63e 8b15 133f 48ad aa3b 47af a13e
000001f0: 9993 c13e ccec e13e f908 b73e cbd3 803e
00000200: 7b8d 953e d1b3 8e3e 778c d63e 418d 9e39
00000210: d98e 963e 9651 f83e 5db5 8d3e 8063 343f
00000220: cbef 623e a946 413f fec0 c53e 89f7 113f
00000230: 5ecc 8a3e 8730 433e 3316 ec3e da6b 463e
00000240: ad27 233f 4177 c23e 9281 973e 2996 d23e
00000250: 30e1 b83e 99fa 0f3f bd22 e33e ef67 bc3e
00000260: c0d5 db3e 7617 d13e fbfb cd3e eed6 903e
00000270: ed20 e23e 1e70 983e 8ab2 9e3e 2b02 563e
00000280: 3455 e43e 278e b73e 89c1 aa3e 7057 d63e
00000290: 9c4c b93e 3bfa c73e d60a 083f 3fbf fd3e
000002a0: 9c16 2a3f 80f9 e43e c8b9 b23e 8f98 bb3e
000002b0: 7d3d 723a 4684 7a3e 4d15 ef3e 3a4a ad3e
000002c0: 643b eb3e ff3f e03e d1e8 e53e f3d6 b73e
000002d0: 4e1b a43e a8d2 a53e e746 a13e e140 c93e
000002e0: f98c d33e 96df c43e f083 883e b341 d43e
000002f0: fed7 cb3e 77e8 b33e 5de6 aa3e 71d8 da3e
00000300: 6b96 b33e bb5d af3e d6d7 033f 8788 8e3e
00000310: 9748 063f cdce 9a3e 0608 063f 4191 6f3e
00000320: 4121 013f ed1b 783f 4a9f 963e 78f0 f93e
00000330: e9d0 363a 458e ce3e 3730 863e 5840 083f
00000340: f998 f43e a422 a43b ce98 b43e 8ea4 833e
00000350: e9a5 c73e c9f1 8a3e 87ba c23e 3c62 983b
00000360: 092b 063f 7e6a b63e bf12 1a3f 8599 f13e
00000370: 0f28 0c3f d811 0d3f 10ab c33e 7787 003f
00000380: 170d c03e 7117 e03e aec3 a13e 76ca 8b3e
00000390: bf06 d23e 0a09 143e 1837 e53e 13d8 cc3e
000003a0: 0f37 213f a1bf 893e f095 aa3f 03d8 d03e
000003b0: 1c45 af3e 7486 a13e 7123 ed3e 3de3 9e3e
000003c0: 3227 733f 9f85 a43f 8f0b d83e b9be d53e
000003d0: 0e95 9f3e 55fc d53e 361f 1c3b 44ce bf3e
000003e0: 83f3 13bb fcab cc3e 2fb3 913e 9832 b03e
000003f0: c3ab c03e b302 803e 135e 943e 10f3 813e
1.2477654 0.43259513 0.30728242 0.0048187454 0.4095195 0.26636043 0.5119575 0.39521796
0.5938563 0.40448833 0.22356278 0.40584487 0.35792485 0.7249962 0.25824487 0.36626247
0.5670583 0.49758142 0.35653472 0.30284148 0.8451591 0.40982005 0.42528445 1.4083152
0.51227075 0.4950587 0.15266374 0.92276263 0.43714336 0.3408121 0.39071006 0.36371502
0.2875073 1.2717181 0.44978005 0.26995346 0.47066167 0.24859168 0.23042028 0.22737591
0.42102358 0.46029544 0.59121305 0.22272111 0.30380708 0.40607274 0.43379176 0.23519741
0.45074874 0.36734268 0.40083754 0.44118235 0.48928738 0.39001477 0.47040617 1.243492
0.6015685 0.23479101 0.412485 0.48414832 0.44560325 0.3876544 1.2523087 1.2300034
0.48204046 0.2593109 0.4785561 0.4255649 0.44984958 0.5145753 0.22336254 0.3157675
0.77199316 0.4614088 0.44660768 0.32475352 0.35664636 0.30504498 0.42576164 0.44109625
0.53239113 0.677709 0.43710038 0.30393404 0.31790888 0.39803565 0.5048934 0.24869101
0.5269288 0.17759034 0.53131235 0.5717703 0.43062735 0.44180128 0.6174634 1.1439708
0.32706282 0.2922589 0.004623781 0.47599193 0.26477447 0.4154067 1.2223411 0.28586596
0.46740445 0.35041216 0.38915548 0.4290877 0.59488696 0.31596726 0.47035697 0.19567302
0.31145403 0.39119247 0.33326748 0.55733514 0.37558457 0.5850229 0.5379552 0.44634992
0.3556014 0.57454747 0.005208645 0.31579039 0.3780792 0.44125974 0.35749033 0.25161585
0.29209504 0.27871564 0.4190404 0.0003024135 0.2940586 0.48499745 0.27677432 0.70464325
0.22161786 0.75498444 0.38623804 0.57018334 0.27109045 0.1906148 0.46110687 0.1937708
0.63732415 0.3798161 0.29591042 0.41130188 0.36109304 0.56241757 0.4436244 0.36798045
0.42936516 0.40838212 0.40231308 0.28288978 0.44165745 0.2977304 0.3099559 0.20899265
0.44596255 0.3585064 0.3335078 0.41863585 0.3619126 0.39058098 0.53141534 0.49559972
0.6644075 0.44721603 0.34907365 0.3663983 0.000924073 0.24464521 0.4669594 0.33845693
0.4594375 0.43798825 0.44904187 0.3590618 0.32052082 0.3238728 0.31499407 0.3930731
0.4131849 0.38451833 0.2666316 0.41456375 0.39813226 0.35138294 0.33378878 0.42743257
0.35075697 0.34251198 0.51501215 0.27838537 0.52454513 0.302359 0.5235599 0.23395254
0.50441366 0.9691761 0.29418403 0.48816276 0.0006973879 0.40342918 0.2620866 0.5322318
0.4777296 0.0050090123 0.3527283 0.25711483 0.38993767 0.27137592 0.38032934 0.0046503823
0.52409416 0.35628122 0.60184854 0.4718744 0.54748625 0.5510535 0.38216448 0.502067
0.37509987 0.43767884 0.31594604 0.27302903 0.41020772 0.14456573 0.44768596 0.40008602
0.6297464 0.26904014 1.3327007 0.40789804 0.34232414 0.31547892 0.46316102 0.31032744
0.9498168 1.2853278 0.42196319 0.41747072 0.31168407 0.41794077 0.0023822314 0.37462056
-0.0022575564 0.39974964 0.2845702 0.344136 0.37631044 0.2500206 0.28978023 0.25380754

bn1.bias f4 [400]
00000000: 3356 12bf 5a2c 2abf 30e3 e2be 6f35 81bd
00000010: 0315 48be 67cf 5fbe 7779 1fbf a581 69be
00000020: 6c6d 25bf 4e59 8dbe 9651 a3bc e1f8 febe
00000030: e2b1 acbe cfd5 12bf cb89 06be 91e2 c5bd
00000040: 3028 3dbf 8325 15bf d355 a2be 1d06 8cbe
00000050: a740 d2be 97ca 09bf 6380 4bbf 960f 2d3e
00000060: 3116 97be abc7 a0bd df6a 22bb 2c88 82bf
00000070: a808 2fbf 6da8 d7be be0e 2bbf 87f6 d8be
00000080: 5d58 d1bd 6104 eabe 6eee b4be 8f29 07be
00000090: 40ad 57bf 8651 59be 31e4 e5bd 39a6 74be
000000a0: da67 12bf bd88 debe ac3d 28bf 43d2 563d
000000b0: 9688 64be 9a60 f2be 7ae1 1bbf 1303 4cbe
000000c0: eece 6ebf a0c8 e0be a0b1 28bf d293 d8be
000000d0: ff09 29bf 69e0 ccbe 8a95 2ebf 68b1 d8be
000000e0: c08d 00bf 6921 0ebe 86cb 6cbe cd70 23bf
000000f0: 851b b0be 0523 a0be 85e9 68bf 32c5 47bf
00000100: 36b2 13bf 8004 53be 314a d0be e4a4 29bf
00000110: abac 04bf f402 42bf b7e7 df3c 1dc4 c3be
00000120: 301c 78bf 3ef3 ecbe 6029 99bf 9708 afbe
00000130: f1d2 b9be ab2e d43d ba98 cebe f2c2 2bbf
00000140: 96d2 2fbf 5bdb 22bf 3689 23bf a610 c1be
00000150: 1e5b c6be b978 ccbe f368 8bbf f97f 4bbe
00000160: 4663 4fbf dcd3 bbbc 18d4 3abf d859 21bf
00000170: 0aa1 d0be 29d1 9abe 4ee8 1bbf a3fe 6cbf
00000180: 48fa 88be ccec a2be fe1c 38bd fb6e 29bf
00000190: dff3 13be d718 bebe d560 debe 02ae 64be
000001a0: 9d14 19bf 2935 fbbe 6014 f9be e4e2 c7be
000001b0: 91e6 28bf aad2 373e ea46 34bf 078d a1bc
000001c0: 4561 b9be d9c3 f0bd d8ec 38be 4b32 8dbc
000001d0: 164a 21be a98c 2cbf ee81 20bf 086c 13bf
000001e0: a1ca 44be e480 20bf af77 31bd 421c 34be
000001f0: 2c47 85be 45e9 a8be 43fb a9be 2fe3 19bd
00000200: 5e97 5db8 88f7 afbe 896b 89be 1bf5 5bbb
00000210: d52b b8be 7b5b 1fbf 94b8 5ebe 7a67 a7bc
00000220: d038 1f3c 203c 4fbf dfaa 35bf 409b 65bf
00000230: 291a a9bd c8c3 d7bd 493c 02bf 61ec f7bc
00000240: 7827 2ebf 837c fabe c7eb 53be 88e6 0cbf
00000250: 2353 ebbe d8f1 3ebf cae4 9ebe f2a6 65be
00000260: 9685 86bf 37d8 94bf 1727 7abf a4a4 07be
00000270: 1464 e6be 6f04 0e3f 26da 7cbe dafe d0bc
00000280: bd5f 26be 0679 a6be 9558 d0be 8b37 91be
00000290: d771 c8be 0d21 ccbd b59b 02bf ff0c d6be
000002a0: 1ddb 12bf 688a 14bf 04bc babe bc62 18bf
000002b0: 75de b0bc 7ab1 9dbe 9f2f 3fbf e584 22bf
000002c0: 3ce9 debd 2704 37bf 8259 07bf 50ef aabe
000002d0: c43b bdbe c486 88be fbc1 cdbe 332c c6be
000002e0: 54f3 4bbf f6a3 8bbe 20a2 b0be 72a4 d7be
000002f0: 1e30 20bf 731e 77be 9c77 74be c72d 12bf
00000300: 88bc cfbe 7205 5cbe 0830 febe a040 70be
00000310: c0fc 0abf a4e0 81be 7707 13bf 0d63 08be
00000320: f2e8 f1be 9243 3abf edcd 523b 5e54 11bf
00000330: 2a69 99bc 6600 2cbf 6aa9 d6bc 3898 29bf
00000340: 17d1 7bbe 1b31 69bd 6e7f 84be 798b 4e3c
00000350: b2d7 1dbf c218 97be 82a6 90be 4e03 14bd
00000360: c014 8cbf 5ad0 36be 580b 1cbf f63c c6be
00000370: 1e3a 25bf f033 62bf 9833 10be f28d 5dbf
00000380: 593c b2be f5c1 89be 62e9 35be 3f73 b7be
00000390: 34ed 24be 77fb 26bd 4991 dcbe 923d fbbe
000003a0: ffb3 26bf 5f5c 40be c2f1 a7bf e9bc b2bf
000003b0: 8f2b edbd 232f 51be bbeb 18bf dd88 2dbe
000003c0: 501d 34bf a1ab 82bf 5bd9 fabe 9c1d debe
000003d0: ed93 d8be 7aba 58be 6734 f2bc 7bb2 bcbe
000003e0: 3ecc b1bc b3b5 1cbf 275c 2dbe 127b c6be
000003f0: ecf0 82be f5ab f63c a376 77bd 543a 14bd
-0.5716278 -0.66473925 -0.44313955 -0.0630902 -0.19539265 -0.21856461 -0.62294716 -0.22803362
-0.6462009 -0.27607197 -0.019936364 -0.49799255 -0.33729464 -0.57357496 -0.13138501 -0.09662355
-0.73889446 -0.58260363 -0.31706104 -0.27348414 -0.4106495 -0.5382475 -0.7949278 0.16900477
-0.29509118 -0.07850584 -0.0024782938 -1.0197806 -0.68372583 -0.42120686 -0.6681937 -0.42375585
-0.10221932 -0.45706466 -0.35338157 -0.13199447 -0.84248734 -0.21222505 -0.11225165 -0.23891534
-0.57189715 -0.43463698 -0.65719104 0.052446615 -0.22317728 -0.47339326 -0.60890925 -0.19923048
-0.932845 -0.43903065 -0.65896034 -0.42300278 -0.6603088 -0.4001496 -0.6819693 -0.4232285
-0.50216293 -0.13879932 -0.23124513 -0.63843995 -0.34395996 -0.31276718 -0.9098132 -0.7803527
-0.57693803 -0.20607185 -0.40681604 -0.6626723 -0.5182597 -0.75785756 0.02733217 -0.3823556
-0.9691801 -0.4627933 -1.1965752 -0.3418624 -0.36293748 0.10360464 -0.40350896 -0.6709434
-0.68680704 -0.6361596 -0.6388124 -0.37708014 -0.38741392 -0.39935854 -1.0891403 -0.19873036
-0.81010854 -0.02292817 -0.7297988 -0.63027716 -0.40747863 -0.30237702 -0.60901344 -0.92576045
-0.2675345 -0.31821287 -0.044949524 -0.6618497 -0.14448498 -0.37128326 -0.43433252 -0.22332004
-0.5979708 -0.49063995 -0.48648357 -0.3904029 -0.65976816 0.17951456 -0.70420706 -0.019720567
-0.36207023 -0.11756105 -0.18059099 -0.017235896 -0.15750918 -0.6740213 -0.62698257 -0.5758672
-0.19217922 -0.6269667 -0.04332703 -0.17588905 -0.26030862 -0.3299047 -0.3319951 -0.037570175
-5.2831478e-05 -0.3436854 -0.26839855 -0.0033562842 -0.3597094 -0.62248963 -0.21750098 -0.020435084
0.009718135 -0.8095112 -0.70963854 -0.8969002 -0.08256943 -0.10535389 -0.5087324 -0.030264081
-0.68028975 -0.4892312 -0.2069541 -0.5503926 -0.45961866 -0.74587774 -0.31033927 -0.22426966
-1.0509517 -1.1628484 -0.97715896 -0.13246399 -0.4499823 0.55475515 -0.24692592 -0.025512148
-0.16247459 -0.3251421 -0.40692583 -0.28362688 -0.39149353 -0.099672414 -0.5101884 -0.4180679
-0.5736559 -0.5802369 -0.3647157 -0.59525657 -0.02159045 -0.30799466 -0.7468204 -0.6348403
-0.1088433 -0.7149071 -0.52870953 -0.33385706 -0.3695966 -0.26665318 -0.40187058 -0.38705596
-0.79668164 -0.2727353 -0.34498692 -0.4211765 -0.6257342 -0.24132709 -0.23873752 -0.571011
-0.40573525 -0.21486452 -0.4964602 -0.23462152 -0.54291916 -0.253667 -0.57433265 -0.13319035
-0.47248036 -0.72759354 0.0032166198 -0.5676936 -0.018726904 -0.6718811 -0.02620383 -0.6624789
-0.2459148 -0.056931596 -0.2587847 0.012606495 -0.6165725 -0.29511076 -0.28252035 -0.036135964
-1.0943832 -0.17852917 -0.6095481 -0.38718385 -0.64541805 -0.883605 -0.14082181 -0.86544716
-0.34811667 -0.2690579 -0.1776481 -0.35830113 -0.16106111 -0.04076716 -0.43079594 -0.49070412
-0.651184 -0.18785237 -1.3120654 -1.3963901 -0.11580574 -0.20428137 -0.59734696 -0.1694674
-0.7035723 -1.0208627 -0.48993954 -0.43381965 -0.42300358 -0.21164885 -0.029566003 -0.3685492
-0.021703836 -0.6121475 -0.16929685 -0.3876577 -0.25574434 0.030111292 -0.060415875 -0.03618844

bn1.running_mean f4 [400]
00000000: 04e3 97be 4380 4840 6f79 d6bf 1025 7a3e
00000010: 585d 0e3f 7825 4d40 2c89 6e40 c0e6 0d3f
00000020: bc20 3abe 8d79 393e 94b7 4640 a007 da3f
00000030: 3635 0240 9cd7 99be 265a 0941 601f a8be
00000040: 0e61 58c0 c883 21be a24b 1440 7586 4c3f
00000050: 697b b13e f83d 04c0 8a22 203f b80d d6bd
00000060: 8210 3140 73f1 eabe 391f 3ec0 8d0a 9fbe
00000070: b3bf 733f 1c14 8c3e fac0 2abf cbb0 3bc0
00000080: b465 b2bf a44f c23c 8d25 c83f 3c17 e33f
00000090: aeca 083f 2b9d 60c0 782a d0be 176a cb3f
000000a0: 3fe8 ebbf 5e73 a93e fc5f 603f ac49 6e40
000000b0: 7670 883f 908c 0bc0 9ea1 ff3f 8d50 6d3f
000000c0: 662c b4c0 3134 2d40 07a1 0fbe 43d5 02bf
000000d0: 0cea df40 6583 0bc0 4c1c c13f d727 643d
000000e0: 2e72 72bf 60ec babe 1922 3ebf 463d ebbf
000000f0: 8a9d b43f 6531 8bc0 2301 3c3e c4ff 91be
00000100: 0ba4 fabf 27e9 79bf 3447 333f a31d 4840
00000110: 5436 e23f 071d 803e 4138 f5bd a614 50bf
00000120: cf29 0b3e 695d b1bf 70c9 adc0 75cb 9140
00000130: 19ad 01c0 12f2 a340 30b0 0bc0 a097 1ec0
00000140: 6757 69c0 6afa 383f 374d 0ac0 b369 d7bf
00000150: df8b 52bf 822e 9a3f 7df9 83c0 ce8d 4840
00000160: cebb 13bf 4f97 5bbe 3eed a1c0 d752 aebf
00000170: e4d6 933f 5159 443f 3c00 003f 0bea 3a3e
00000180: 4382 bb3f a5f4 23c0 aa4e 023e 9c9a 8ebf
00000190: 4a27 9a3e 9fc1 7d40 e66b 6f3d b178 ae3e
000001a0: 2f07 c13b fd50 7d3e 481b 84bd 8db9 9440
000001b0: 5838 cabe 9656 f4be fabc 13be 2920 fb3e
000001c0: 67ac 753f 41e9 bd3f 91f6 9ec0 a681 843f
000001d0: ee7e 903f 3dbf c73f 47ea f6bf b39f 883f
000001e0: 822e 6a3f e5f9 23c0 f8d8 8d3d 6404 3ec0
000001f0: 2f74 663f cc07 293f 5d55 0e40 25e9 253f
00000200: 8c9e c93f bef5 e7bf d056 0b3f cb6c 3e3e
00000210: 64f8 27c0 0609 81be 5bd7 cfbf e12f b4be
00000220: fb21 843f fb71 d3bd 007c 5240 8378 0fbf
00000230: 8e32 62be e79e b3be d639 c6bf 5b32 ec3f
00000240: 7a0b 91be 3572 9b3e e193 2abf af16 b8bd
00000250: 7221 a23f f652 0ebf a07e 03bd ca40 0abf
00000260: 8354 6ec0 1190 51bf 476b f3be 612b f2bf
00000270: a329 c13e 8118 ee3f e043 153f 0d08 0440
00000280: afd9 65bf b961 1240 d588 a43e 309b e4bc
00000290: c4bf f93e 8ad4 aebf 493c cfbf fea8 26c0
000002a0: 16e9 2a3f 6272 0fbf 9618 9ac0 b94f 823f
000002b0: 3761 b2bd fb3f 3bbe c004 3740 ac77 afbf
000002c0: 1f85 83be d9e4 1fc0 c377 6ebe 27cb 03bf
000002d0: 5913 e7be effb 1dc0 2276 d93f f3eb 1940
000002e0: 92d2 e23f aff4 22be f0a0 99bd 8868 c63f
000002f0: 6882 6540 f998 413e 7f44 d6bf 3e96 833f
00000300: e75a 6ebf e811 c33e 98b1 3f3f 2d57 e2bf
00000310: 0320 a03f 93ee 2bc0 c4d3 f8be cdbc a6bf
00000320: 68eb 413f 5b50 833e f4e6 8c3f 5434 4fc0
00000330: 92a6 333e 9d8e c3c0 4c08 a63f 814c 8cbf
00000340: defc 213f 32e1 07be 3ec1 e7bf 6320 13c0
00000350: 4ecc 7d3f 7af2 b83f efe8 6cbf 5066 ecbe
00000360: 9d71 993f 38d7 903f 0fed 6f3f 1daf 19c0
00000370: baf1 13c0 167d 523d 0889 cc3f b57a 0240
00000380: 85e9 193f ac3a 3fc0 d220 11c0 cea8 5c3f
00000390: 6a4b df3f 2b8a fb3f 7f77 f33f a4ad 023f
000003a0: af4b 2abf 55ac c23e 8492 97bc a1a2 8c40
000003b0: a47d 7dc0 5ead 0f3f d174 6fbf 6d01 24bf
000003c0: f343 7f3f c490 a73d 7929 6d3f 7016 ad3c
000003d0: cbef 4ebe 1d6f af3f 81b4 cebc 85cc 6640
000003e0: 5a66 acbd 6c2e 8abe 983e 15c0 f5aa 863f
000003f0: 8e81 1340 c9aa a83f cb2b 4ebf fda2 c13f
-0.29665387 3.1328285 -1.6755809 0.244282 0.5561118 3.205412 3.7271223 0.5543022
-0.1817655 0.18112774 3.1049547 1.7033577 2.0344977 -0.3004731 8.584509 -0.32836437
-3.3809237 -0.15772927 2.3171163 0.79892665 0.34664467 -2.0662823 0.625527 -0.104518354
2.7666326 -0.45887336 -2.9706557 -0.31062737 0.95214385 0.27359092 -0.6670071 -2.9326656
-1.3937287 0.023719616 1.563646 1.7741466 0.53434265 -3.5095928 -0.406574 1.5891751
-1.8430251 0.3309583 0.8764646 3.7232466 1.065932 -2.1804543 1.9971197 0.92701036
-5.6304197 2.7063105 -0.14026271 -0.5110666 6.99732 -2.1798947 1.508676 0.055702057
-0.94705474 -0.36508465 -0.7427078 -1.8378074 1.4110577 -4.3497796 0.18359809 -0.28515446
-1.9581312 -0.9762139 0.7003052 3.126809 1.767283 0.25022146 -0.1197362 -0.81281507
0.13590167 -1.3856632 -5.4308395 4.556086 -2.02619 5.1232996 -2.1826286 -2.4780045
-3.6459596 0.722571 -2.1609628 -1.6829132 -0.82244676 1.2045443 -4.124205 3.133655
-0.5770844 -0.21444438 -5.06021 -1.3619031 1.1549954 0.76698786 0.5000036 0.18253343
1.4649128 -2.561807 0.1272532 -1.1140933 0.301081 3.9649427 0.05845251 0.34076455
0.005890749 0.24737926 -0.06450516 4.6476502 -0.39496112 -0.4772231 -0.14427558 0.49047974
0.9596619 1.4836808 -4.9675984 1.0352066 1.1288736 1.5605236 -1.9290246 1.0673736
0.91477215 -2.5621274 0.06926149 -2.969018 0.9002103 0.6602752 2.2239602 0.64808875
1.575151 -1.812187 0.5442934 0.18596189 -2.6245356 -0.25202197 -1.6237596 -0.3519278
1.032287 -0.103244744 3.2888184 -0.5604326 -0.22089598 -0.3508217 -1.54864 1.8452867
-0.28329068 0.3036057 -0.66631895 -0.089887016 1.2666457 -0.5559534 -0.03210318 -0.5400511
-3.7239082 -0.8186045 -0.47542784 -1.8919488 0.3772708 1.8601228 0.58306694 2.0629914
-0.89785284 2.2872145 0.32135645 -0.02790603 0.48779118 -1.3658612 -1.6190273 -2.6040645
0.6676191 -0.5603391 -4.815501 1.018058 -0.087099485 -0.18286125 2.859665 -1.3708396
-0.256875 -2.4983428 -0.23287873 -0.5148186 -0.4513195 -2.4685018 1.6989176 2.4050262
1.7720511 -0.15913652 -0.075013995 1.550065 3.5860844 0.1890601 -1.6739653 1.0280225
-0.93107456 0.380996 0.7488036 -1.7682854 1.2509769 -2.6864364 -0.48599064 -1.3026367
0.75749826 0.25647244 1.1007981 -3.2375689 0.1754401 -6.111159 1.2971282 -1.0960847
0.6327647 -0.13269499 -1.8105848 -2.2988517 0.9913987 1.4448998 -0.9254293 -0.46171808
1.1987797 1.131568 0.937211 -2.401313 -2.3116288 0.051388822 1.5979319 2.0387394
0.6012195 -2.987956 -2.2676282 0.86195076 1.744489 1.965154 1.9020842 0.51046205
-0.66521734 0.38022104 -0.018502481 4.394852 -3.9607935 0.5612391 -0.9353762 -0.64064676
0.9971306 0.08181909 0.9264141 0.021128863 -0.20208661 1.3705784 -0.025232555 3.606233
-0.084179595 -0.26988542 -2.3319454 1.0520922 2.3047824 1.317712 -0.8053557 1.5127865

bn1.running_var f4 [400]
00000000: 686f 2342 c1f3 b642 3273 2342 be5f dc3e
00000010: 989e fd41 b783 0f42 0aca f242 b8f7 4242
00000020: 9eb6 3742 64ce f641 fbdb 1842 f21e 1542
00000030: 61c4 4c42 bd7c e341 5583 ba42 2ef8 d941
00000040: aa8c 3f42 5d6d 0143 b86c d741 43dd 1242
00000050: 080e 0242 4e3c a742 e0e4 f441 0192 1f42
00000060: 11b6 2a42 d7d7 0743 a244 9142 1d50 3b42
00000070: 82be 5942 9716 0a43 ab22 1342 921a dc42
00000080: 182f 8942 097f fc41 c615 fd42 880c 5842
00000090: 35a6 6043 1b11 0e42 b955 fe42 debd 1142
000000a0: 7413 b441 0146 3c42 5003 ea41 3a58 6f42
000000b0: f612 f641 15e7 4c43 f767 1343 0681 bf41
000000c0: df41 a942 4b17 4342 6c97 4e42 463c 4242
000000d0: c56b 1a43 6410 8442 6e6a 7442 110a e541
000000e0: 0d37 0142 bf9c 0643 7d71 fe41 82da e441
000000f0: 4744 0542 95d8 5142 03a8 3542 8fc5 3042
00000100: 017e 2042 4b3c cc41 2582 1842 b3c5 0e43
00000110: 8df2 d542 e21f 1a42 743d 9541 d8b8 0642
00000120: 01b5 4942 2785 9841 8fc2 bf42 ead1 9c42
00000130: a65b 8941 e428 cb42 5c7b 7a42 0f82 2243
00000140: 069d 2f42 fc59 c841 f2ab f242 b98f c741
00000150: 0650 dc42 3890 c441 6b27 c742 eed3 3f42
00000160: e774 4542 01ab 6842 68e5 bf42 6749 ed41
00000170: dc33 9f41 4ff6 4642 882d 1142 ecfd 3642
00000180: cc1c 2142 2d11 1642 c109 863f 1113 1942
00000190: d639 bb41 7b08 f442 236b cc41 0b64 3142
000001a0: da57 3942 9a31 b741 cb5a b742 1591 c842
000001b0: 1128 cc41 ea67 b541 89d0 aa42 e8be b641
000001c0: 4739 3242 78ea f741 6206 9742 fcf5 c141
000001d0: 9139 9041 5cae 0043 5dbf 8742 9de1 7941
000001e0: c36c 2442 8494 4942 1e61 043f 0373 1942
000001f0: 6599 de41 bf4f 1142 de70 4f42 001c bd41
00000200: b917 5442 d586 cd41 3a11 0942 6fb2 a63e
00000210: 45ab 0742 1aaf e442 9873 fe41 efc0 7742
00000220: ed3d 1b42 515e 7842 5eb9 ce42 912d f542
00000230: c121 5742 1119 fe41 eb9c ba42 9499 d541
00000240: 81cb 0442 4a94 9b42 829f 8a42 9cfb f041
00000250: 2eba 8d41 5db6 ea41 3f38 0842 6658 f041
00000260: 10fd 2342 091b 9142 2638 a042 556d 0c42
00000270: f39e bc42 a747 2a43 62a9 5042 8eb7 fa41
00000280: 9768 0042 c2c9 e441 a694 a742 fab5 ac41
00000290: fff3 1042 923b a041 949b ad41 68a8 a042
000002a0: 6224 2342 0cdd 3d42 fa9d b542 2551 3042
000002b0: 6862 803e 46bd a042 0625 0343 dea0 6d42
000002c0: ce40 0643 c695 aa42 17a5 1942 f785 ed41
000002d0: 6f03 7842 44d1 3f42 871f 1742 69dc 4b42
000002e0: 2d93 8842 c62d 4742 d8e9 e341 96fc 7c42
000002f0: 5aa6 5742 cf1e 4142 d2c0 ef42 63e2 4343
00000300: 963e ec41 fd6e 9741 0088 f641 4ab1 7041
00000310: 8739 d642 4e2d 2d42 de82 9542 de1e d541
00000320: 08c5 2643 438e 1042 8447 7e42 bf22 b242
00000330: 1b57 ca3e 47a7 a142 cd7e 0a42 14fc 8242
00000340: adf7 4f42 18f1 733e c79b 3242 9679 cb41
00000350: 7e9f df42 a405 8b42 399f 6e42 f79a 493f
00000360: c800 d942 f3dd f941 b14e 8543 521b 4442
00000370: 2f7e 0643 ea7a a642 ddaa b442 d9e3 2c43
00000380: 3780 0e42 23da 3a42 3d0f 8a42 0d61 2c42
00000390: 7363 8342 2672 1642 2d2e 6142 2b89 9a42
000003a0: b8b4 ab41 85e3 3142 7009 4542 21ae b742
000003b0: bea3 1e43 fa91 cc41 b79f cd41 f9da 4e42
000003c0: 4914 7a42 7cdb 0f42 670a b741 0f8c 8842
000003d0: 9553 b542 ddab 2642 33e8 5d3e c212 6342
000003e0: 9728 743e 9832 6542 0416 6f42 02f0 d841
000003f0: 2d19 3442 0800 5e42 ce08 c142 07ce 5242
40.858795 91.47608 40.862495 0.43041795 31.702438 35.878628 121.39461 48.741913
45.928337 30.850777 38.214825 37.28022 51.191776 28.435907 93.25651 27.246181
47.887367 129.4272 26.928085 36.716076 32.513702 83.61778 30.611755 39.892582
42.6778 135.84312 72.63405 46.828236 54.436043 138.08824 36.783855 110.051895
68.59198 31.562029 126.54253 54.012238 224.64925 35.516705 127.16743 36.435417
22.509499 47.068363 29.251617 59.83616 30.759258 204.90266 147.40611 23.938
84.628654 48.772747 51.647873 48.55886 154.42097 66.03201 61.103935 28.629915
32.30376 134.61229 31.805414 28.606693 33.316677 52.461506 45.414074 44.19293
40.12305 25.52944 38.127094 142.77226 106.97373 38.531136 18.655006 33.68051
50.42676 19.065016 95.88 78.40999 17.16975 101.579865 62.62047 162.50804
43.903343 25.043938 121.33583 24.945177 110.156296 24.57042 99.57699 47.956963
49.364162 58.166996 95.94806 29.660841 19.900322 49.740536 36.294464 45.74797
40.278122 37.516773 1.0471727 38.26862 23.40324 122.01656 25.552313 44.3477
46.335793 22.89922 91.67733 100.28336 25.519564 22.67574 85.407295 22.843216
44.555935 30.989487 75.51247 24.24511 18.028109 128.68109 67.87376 15.617581
41.106213 50.395035 0.5171069 38.362316 27.8249 36.327877 51.86022 23.638672
53.023167 25.690836 34.266823 0.3255801 33.917255 114.341995 31.806442 61.93841
38.810474 62.092106 103.362045 122.589 53.782963 31.76224 93.30648 26.69999
33.198734 77.78963 69.31154 30.122856 17.715908 29.339045 34.054928 30.043163
40.99713 72.5528 80.109665 35.10677 94.31045 170.27989 52.165413 31.339626
32.10214 28.598515 83.79033 21.588856 36.238277 20.029087 21.700966 80.32892
40.78553 47.465866 90.80855 44.079243 0.25075078 80.369675 131.14462 59.407097
134.25314 85.29253 38.41122 29.690413 62.003353 47.95436 37.78079 50.965244
68.28745 49.7947 28.489182 63.246666 53.912453 48.280087 119.8766 195.88432
29.53056 18.929193 30.816406 15.043283 107.11236 43.294243 74.7556 26.640072
166.76965 36.138927 63.56984 89.06786 0.3951958 80.82671 34.62383 65.49234
51.99187 0.23822439 44.652126 25.434368 111.81151 69.51102 59.65549 0.7875208
108.501526 31.233374 266.61478 49.02668 134.4929 83.24007 90.33372 172.89003
35.62521 46.713024 69.02976 43.094776 65.69424 37.611473 56.295094 77.26791
21.463242 44.472187 49.259216 91.840096 158.63962 25.571278 25.702986 51.71384
62.51981 35.96434 22.88008 68.27355 90.663246 41.667835 0.21670608 56.76832
0.23843609 57.299408 59.7715 27.117191 45.024586 55.50003 96.5172 52.7012

fc2.weight f4 [300, 404]
00000000: 1939 e2bc 4ea4 6fbc d6f7 d4bd 523a 083d
00000010: f4c5 a83c 34cc d9bc 2ebf c83b c9fb f33c
00000020: 20c8 dbbd 966e 88bd 3bca 17bd c534 dbbb
00000030: 9642 9fbd ec6e 01bd 3a2e 60bc 753b 6b3c
00000040: 02db 65bd 1e9e 5d3d f792 47bd 4ed3 c3bc
00000050: ef0d cabd c951 273c a607 aebc 4e4e 10be
00000060: 1fc1 7ebd c1ca b1bc dc96 19be 4e63 7abd
00000070: e59c 93bd 1401 e6bc 9a16 3ebd d6d5 edbc
00000080: 8150 69bd eb74 a3bd b436 4abd f7b7 12bc
00000090: 385f a1bd 2bc6 423d bc8b 11bd 8d07 07bc
000000a0: 6024 a8bc e63a 1a3d ed90 4ebd 6b91 b8bd
000000b0: b510 24bd c9f3 94bc 1728 36bd 7a82 37ba
000000c0: 2245 2f3d 46b6 353c 0615 413c df80 48bd
000000d0: f89b a7bc 194b 47bd ccfc 53bd d3c4 323d
000000e0: d874 86bd 9613 39bc 9ca3 fcbc 2a31 65bb
000000f0: 8b9b cc3c eeaa 92ba d493 21bd 9eae e5bd
00000100: 1d08 533c 5c4b 9bbd 3e53 86bd bbdc f5bc
00000110: 4718 01bd e38c 1fba f583 c5bd f6e5 b6bb
00000120: f06a 05bc 35d9 a2bc 75f9 e9bc 440c 61bd
00000130: ec3f e2bd 6bf0 e6bd 5b3a b93c 4748 b3bd
00000140: 44b4 aa3b 2bc1 57bc eecb eabb 4bd5 74bd
00000150: c500 13bd e4a5 72bc 4b4c 1a3d c6f7 29bd
00000160: 8bf6 f1bc ae50 b6bd b9d1 8ebd 6d5e 51bd
00000170: a670 b8bd 8424 19be e9bd 9dbd 1bb5 b8bc
00000180: 74a6 9abd 88a1 8cbd 1cec 443c c1d9 80bd
00000190: 72e2 f7bc 1850 703d 38d6 693b aa04 2abd
000001a0: 4254 b0bd 5305 51bd 46e3 a1bc ab17 36bc
000001b0: 6dd4 033d af67 78bd efbf 8dbd 35a7 c7bd
000001c0: 0e10 f7bc 4c37 643b cb7e 523c 2ce6 75bd
000001d0: 0315 aebb 2634 613c c9a1 9abd 5cff a1bd
000001e0: 4adb a7bd 94bc 91bd 6cb4 1d3d 3448 b6bd
000001f0: 63f6 513c 6fe9 bbbd 4930 ce3c 1156 4abb
00000200: 6bef b7bd 84c9 04bd a08f 80bd da3d 193d
00000210: d555 4bbd 3cea 003d af4a 4dbd e7c2 98bd
00000220: d205 40bd b876 8ebd 73ae d8bc ebfd 99bd
00000230: 9125 15bd 5555 a93c 6be2 7f3b 9da0 a2ba
00000240: 137b 0bbd bbf1 2b3d a801 efbc 50e5 793c
00000250: 93b3 1b3d 0a05 84bc 652d 98bd a82b c83a
00000260: e6b0 ff3b 2bb4 4bbd 1c16 123c d961 f1bc
00000270: 4ee1 7fbd 4df5 8bbd aeaa 86bd aa87 9ebd
00000280: fc34 c0bd be82 9abc e055 3e3d fcb5 843c
00000290: 1227 81bc f9b5 5ebd a836 92bc d841 45bc
000002a0: eb50 54bc f752 d93c 9e06 3abc 3860 37bd
000002b0: 1c8c 2a3d 6302 30bc 79db 17bd 8d4a 4dbd
000002c0: d1df 923d 3b90 57bd a3b9 92bd e741 79bc
000002d0: 0087 9cbd 1c4d 9a3c b7b8 06bd cd21 68bd
000002e0: 6b02 e7bd 81af 14bd 5d4d 64bd 5bda 1cbc
000002f0: aede 123d b2e4 4cbd 4f32 f5bd fb28 9bbd
00000300: 97de 63bd 34b7 4bbd e5a3 5abd 8445 bbbd
00000310: 030d 1abd 1d3b 65bd f99c 79bd 0717 b13a
00000320: 99ac 1bbd b75d dcbc 7429 54bd cb51 90bd
00000330: 4da9 67bd d8e7 073d face b83c 341f cf3c
00000340: 713f a6bd 26f1 6ebd 3bb0 6e3a 50c5 823c
00000350: 5342 eebc 2389 8cbd 3d2a 80bd 88ac 533d
00000360: a0d8 a03c fd0f 05bd 6b62 48bc 3ebf 8a38
00000370: 6c7f 0abd 8c0c da3c 5d5f e4bd eb2b a2bc
00000380: 5d3f b8bb 4fe4 67bd 8dda 96bc 3fbe 04bc
00000390: 43d4 f2bc 4e76 443c a65b 8abd c176 88bd
000003a0: 071c 93bd ec34 debc 92f4 5b3b c370 2f3c
000003b0: 2a8d 903c 23a2 66bd f144 94bd 9d93 8ebd
000003c0: 0916 293c 208f 9fbb ee11 d2bd f401 72bd
000003d0: c22e 323d 1495 24be f20b 453c 294d 333d
000003e0: fbff 7d3c 123d 883c d4ff 263d 4702 2fbd
000003f0: 20e9 20bb 9cfe b7bb 137a 6abd c3de 85bb
-0.027615117 -0.014626576 -0.103988335 0.033258744 0.020602204 -0.02658663 0.006126306 0.029783146
-0.1073153 -0.066617176 -0.037058096 -0.00668964 -0.07776372 -0.031599924 -0.013682896 0.014357437
-0.056117065 0.05410587 -0.04872414 -0.023904469 -0.09865939 0.01021237 -0.021243881 -0.14092371
-0.062195893 -0.021703126 -0.14998955 -0.06112986 -0.0720766 -0.028076686 -0.046408273 -0.029032629
-0.05696154 -0.07981285 -0.049368575 -0.008954993 -0.0787949 0.04755227 -0.03553365 -0.008241546
-0.020525157 0.037653826 -0.05043118 -0.09012111 -0.040054996 -0.018182652 -0.044471826 -0.00070003385
0.04279054 0.011090821 0.011784798 -0.048951026 -0.020460114 -0.048655603 -0.051754758 0.043644737
-0.06565255 -0.011296174 -0.030839734 -0.003497193 0.024976512 -0.0011189857 -0.03944762 -0.11214946
0.012880352 -0.07582733 -0.06558846 -0.030012479 -0.031517293 -0.00060863624 -0.096443094 -0.0055816127
-0.008143172 -0.019878963 -0.028561333 -0.054943338 -0.110473484 -0.11276325 0.022610834 -0.0875402
0.0052094776 -0.013168613 -0.0071654236 -0.059773725 -0.035889406 -0.014810059 0.037670415 -0.04149606
-0.029536506 -0.08902107 -0.06973595 -0.051115442 -0.09005861 -0.14955336 -0.07702238 -0.022547295
-0.0755128 -0.06866747 0.0120191835 -0.06291533 -0.030259345 0.058670133 0.0035680663 -0.041508354
-0.08609821 -0.05103047 -0.019761693 -0.011114041 0.032185007 -0.060645755 -0.06921374 -0.09748689
-0.030159023 0.0034822999 0.012847613 -0.060033962 -0.0053125634 0.013745343 -0.07550389 -0.07910034
-0.08196123 -0.071160465 0.03850214 -0.089004904 0.012815091 -0.09175383 0.025169509 -0.0030874053
-0.08981212 -0.032418743 -0.06277394 0.037412502 -0.049642403 0.031473383 -0.050120052 -0.0745905
-0.04688055 -0.069562376 -0.026450371 -0.07519134 -0.03641278 0.020670572 0.0039044868 -0.0012407486
-0.03405292 0.04197858 -0.029175594 0.015252426 0.038013052 -0.016115684 -0.07430533 0.00152718
0.0078030704 -0.04973237 0.008916404 -0.029465603 -0.062470727 -0.06833897 -0.06575523 -0.077407196
-0.09385106 -0.01886117 0.046468616 0.016200058 -0.0157657 -0.05437276 -0.017848328 -0.012039624
-0.0129587455 0.026528819 -0.011354117 -0.044769496 0.041637525 -0.010742757 -0.03707454 -0.050119925
0.07171596 -0.052627783 -0.07164314 -0.015213466 -0.07642937 0.018835597 -0.032891 -0.05667286
-0.11279758 -0.036300186 -0.055737842 -0.009573544 0.035856895 -0.05002279 -0.11972486 -0.07576176
-0.0556322 -0.049735263 -0.05337896 -0.091441184 -0.037610065 -0.055964578 -0.060940716 0.0013510891
-0.0380064 -0.026900155 -0.051797345 -0.07046851 -0.056557942 0.033180088 0.022559632 0.025283433
-0.08117569 -0.058335446 0.000910524 0.015963227 -0.02908436 -0.06862094 -0.06258056 0.05167821
0.019634545 -0.03248595 -0.012230496 6.6159744e-05 -0.033812925 0.026617311 -0.111510016 -0.019796332
-0.005622788 -0.056614216 -0.01841476 -0.008101999 -0.02964223 0.011991097 -0.06755762 -0.066632755
-0.0718308 -0.027124844 0.0033562523 0.010708037 0.017645437 -0.05630697 -0.07239712 -0.06961749
0.010320195 -0.0048693568 -0.10257326 -0.059083894 0.043501623 -0.16072494 0.012026774 0.043774758
0.015502925 0.016630683 0.04077132 -0.04272678 -0.0024553016 -0.0056150686 -0.057245325 -0.004085393

fc2.bias f4 [300]
00000000: 75c0 11bd c80c cc3f a67b 1fbd d64f c63d
00000010: 535f 823f a121 a2be 2bea d2bd f4be 21be
00000020: 5398 8bbd 3bac 113f f73e f5bd d60f 003f
00000030: e17f 9d3f 21c7 83bd 9790 8ebd db22 e9bd
00000040: 2680 f0bd f0cf 05be 45ca cebd 5b9a 3c3e
00000050: 3775 ecbd 06a9 b2bd b9ce 95bd 32fc f4bd
00000060: cee1 e93f 81e2 86be a5ac 6bbd 2275 acbd
00000070: 3c5d fbbd 50e2 d1bd 48e3 5dbd 5f1a f0bd
00000080: 174f a5bd 6c62 bdbd 5aa5 65bf 8f99 dcbd
00000090: 626b bbbd 0a01 13bd 0e55 ebbd 8cd4 c93d
000000a0: 72fa c4bd 1e29 97bd b421 033d bc9e 05be
000000b0: 0299 db3e 1752 b3bd b86a cebd e392 b6bd
000000c0: f698 d1bd 3be9 843e 3937 11be e63a f5bd
000000d0: 87df c0bd 5ffb 173f 232f b8bd 3b70 b2bd
000000e0: ee74 b4bd 40a1 8c3f 6c39 5ebe 8ebb abbd
000000f0: ed9a 9abd 3903 f6bd 1967 18be 00ae a6bd
00000100: 0a87 1ebd 1fba f1bd 6f64 c2be 50bd bdbd
00000110: f1e4 01bd 640a 5cbd e6e9 3b3f 4aa1 7dbd
00000120: db8e fbbd 0887 81bd 6b3b 5f3f 90d6 0bbc
00000130: 3dbc 973f a897 833f 9d1b 45bd b221 c2bd
00000140: 221c e3bd 6ffa 1dbf 9f88 08be 237c 683e
00000150: 227b bebd 2b86 68be 7373 8d3e 275b d23e
00000160: 38a9 a03d d714 fabd 17a1 98bd aaae ebbd
00000170: 92f3 11be 5e41 2abf 8cdb fabd 0708 983e
00000180: a938 efbd bf17 843e c55c 8b3e 9eac 00be
00000190: c639 0fbd 7170 1dbe aa54 aebd 9f4a b13e
000001a0: 6849 8fbd 5bd0 acbd e074 e4bd 31fb 793f
000001b0: 79fa e7bc 9aee 283e 7a83 8dbd a632 67be
000001c0: 40a1 3bbd a43f c0bd c008 aabe 3bb6 743f
000001d0: 62b6 5fbe 1608 b4bd 9bb9 1cbd e740 9b3e
000001e0: fdc9 efbd 7374 59bd 8ca3 743e 83be 40be
000001f0: 22d7 90bd 1eb9 8dbf ec23 b63f 841c a7bd
00000200: 084b f0bd 988b abbd 2b6b c4bd f145 cb3e
00000210: d633 7cbd 59e5 a1bd e5ad 8abd 2e5d b6bd
00000220: ef1a 90bd cf27 b9bd 1680 c8bd 3401 2bbe
00000230: 6e7c b0bd 82d4 a2bd 03d2 cdbd 9f92 88bd
00000240: ed1d 57bd 5466 603e d826 b63e 7226 cabd
00000250: 6010 f4bd 2bf3 b1bd 22b7 f1be 6c67 28bd
00000260: be3e c1bd b67d 77bd c372 7e3f bd89 92bd
00000270: e1dd 85bd ab13 8ebd c00e 8a3d 5ffc 60bd
00000280: 5644 29be e574 d4bd a3be f4bc 798b ffbc
00000290: 595a 06be 7d1e 9bbd 76cc 92bd 4534 9a3e
000002a0: d08d eabd 0d6b a63e 792b a3bd 18fb 1fbe
000002b0: c4f6 c7bd 07bf a4bd 65c1 05be 533d bebd
000002c0: e9d1 17be 8645 d9bd 1750 70bd e535 a8bd
000002d0: baea 03be fc0c bc3e bf64 babd f8ce 11be
000002e0: d5d9 7cbd 41c3 7d3e 8d5d a9bd f33a bdbe
000002f0: 0ed0 53be 7e64 b03f 5ab0 073f ffa0 69bd
00000300: 9be3 49bd 5cfb 953d e039 b93b 71da f33e
00000310: 2435 0d3e 55c5 c0be c2eb 1fbe e9e5 0b3d
00000320: 420c 7f3f ea3a d3bd faaf c1bd a37c 87bd
00000330: 6b55 cdbd e033 e8bd 526c cabd 0348 963f
00000340: f1a7 c6bd e7cd bebd 0b3b 0b3f 4012 a1bd
00000350: f4d5 9cbd abdc b8bd 90be 2f3f b08d 7cbd
00000360: de05 e0bd 7303 e3bd fa4f 8fbd 9d92 aa3e
00000370: 3ab1 24bd d9bf 1abe f8a3 a8bf a5a1 babd
00000380: e581 b0bd d3d9 333f 3fb9 6fbd faec babd
00000390: ab32 fa3e d8a1 123e 4f9a 5e3f f2d3 9fbd
000003a0: 9cdf 2dbe f4f5 6abd d478 b9bd 128f 3abd
000003b0: 4ea7 bdbd badd 70bd f89e 7e3e dccd 35bd
000003c0: 7d60 8abd 9160 053f 2f00 5a3e 366d 833d
000003d0: 99b0 29bd f412 02bf f60f 1dbf 28fc c6bd
000003e0: 29c5 a1bd d7ff c9bd bdbc 643f 16e7 0ebe
000003f0: ca80 eebd 05ac a8be bde2 0ebe 376c f2bc
-0.035583932 1.59414 -0.03893628 0.09683196 1.0185341 -0.31666282 -0.1029857 -0.15795499
-0.06816163 0.5690343 -0.119749 0.50024164 1.230465 -0.06434465 -0.06961172 -0.11383601
-0.117431924 -0.13067603 -0.100971736 0.18418257 -0.115457945 -0.08723645 -0.0731482 -0.11962165
1.8272035 -0.26344684 -0.057537694 -0.08420779 -0.122736424 -0.10248244 -0.05417183 -0.1172378
-0.08071726 -0.09247288 -0.8970543 -0.107714765 -0.09151341 -0.035889663 -0.11490832 0.09854993
-0.09618081 -0.07380889 0.032014564 -0.13048834 0.42890173 -0.08755892 -0.10078949 -0.08914735
-0.10234253 0.2595919 -0.14181222 -0.119741246 -0.094176345 0.59367937 -0.089933656 -0.087128125
-0.08811365 1.098671 -0.21701592 -0.083853826 -0.07549081 -0.120123334 -0.14883079 -0.081386566
-0.038703002 -0.11803078 -0.3796725 -0.09264624 -0.031712476 -0.053720847 0.73403776 -0.061921395
-0.12283107 -0.06324583 0.8720004 -0.008535042 1.1854321 1.0280657 -0.048122037 -0.09479083
-0.1108935 -0.61710256 -0.13333367 0.22703604 -0.093008295 -0.22707431 0.27627143 0.4108517
0.07844776 -0.12211006 -0.074526004 -0.11507924 -0.14253071 -0.6650599 -0.122489065 0.29693624
-0.11680729 0.25799367 0.27219215 -0.12565848 -0.034967206 -0.15374924 -0.08512242 0.34627244
-0.06996423 -0.08438178 -0.11155105 0.9764891 -0.028317677 0.1649727 -0.06909843 -0.22577915
-0.045808077 -0.093871385 -0.332098 0.9559056 -0.21846917 -0.08790605 -0.038262945 0.30322954
-0.11708448 -0.05308957 0.23890513 -0.18822674 -0.07072283 -1.1072118 1.4229712 -0.08159736
-0.11733061 -0.08376235 -0.09590753 0.397018 -0.061572872 -0.07905073 -0.06771449 -0.08904491
-0.07036387 -0.09040796 -0.097900555 -0.16699678 -0.08617483 -0.07950689 -0.10049822 -0.06668591
-0.052518774 0.21914035 0.3557651 -0.09870614 -0.11917186 -0.08688959 -0.47210032 -0.041114256
-0.09435795 -0.06042262 0.9939386 -0.07155178 -0.06536461 -0.06937345 0.067410946 -0.05492818
-0.16529974 -0.10373858 -0.029876059 -0.031194435 -0.13120402 -0.075741746 -0.07167904 0.30118003
-0.1145283 0.32503548 -0.07967276 -0.15623128 -0.09763864 -0.08044248 -0.13062055 -0.092890404
-0.14826168 -0.10608964 -0.05867013 -0.082134046 -0.1288251 0.36728656 -0.09101247 -0.14239109
-0.06173118 0.24781515 -0.082697965 -0.36959037 -0.20684835 1.3780668 0.53003466 -0.057038303
-0.049289327 0.073233336 0.005652651 0.47627595 0.13789803 -0.37650552 -0.15617278 0.034154806
0.9962808 -0.10313971 -0.09457393 -0.066155694 -0.10026058 -0.11338019 -0.09883942 1.1740726
-0.09700001 -0.093166165 0.5438697 -0.07864809 -0.07657996 -0.09026464 0.6865015 -0.06165856
-0.10938619 -0.11084642 -0.06997676 0.33314982 -0.04020808 -0.15112247 -1.3175039 -0.091128625
-0.086185254 0.7025425 -0.058526274 -0.09127231 0.48866782 0.14319551 0.86954206 -0.07804097
-0.16979831 -0.057363465 -0.09056249 -0.0455466 -0.092604265 -0.058805205 0.2486533 -0.044385776
-0.06756685 0.52100474 0.21289133 0.06417315 -0.041428182 -0.5081017 -0.6135248 -0.09716064
-0.078989334 -0.09863251 0.8935049 -0.1395534 -0.11645658 -0.3294374 -0.13953681 -0.029592616
